Model1-dataset512-epoch5000-lr0.005.pth (torch, 13092 bytes, 13 tensors)

weight f4 [15, 4]
00000000: 4ed7 91bd 675a 593f 39e8 69be 9e77 bebf
00000010: c063 12bf 0d17 193f 0561 1840 1583 91bf
00000020: be9f b73e f4f7 433f fdbf 9cbf 1f56 5dc0
00000030: 01ad 6ebd 04e7 0640 fa7e 56be 41c6 d7bd
00000040: b25c 153f f45c 14bf 159e f83f ea87 b53d
00000050: 1935 bebe 89a3 df3d 2020 99be dd90 3fc0
00000060: 6d7c 103e d5e0 1e3f c0aa d8bd dd5e 2ec0
00000070: f3be 3dbf 20c8 f23e 1cd7 f5be 482b f7be
00000080: 3245 68bf 1750 083d 4002 39bf e767 cabf
00000090: 11e0 debe a458 ba3e 444f 2f40 7084 42bf
000000a0: 2d28 64be c614 e1bc 391a fc3d fe1e 67c0
000000b0: 2314 efbe e532 ca3e c423 15bf ee02 23c0
000000c0: 2252 b73f 9c01 df3d d096 563e b578 81bf
000000d0: 6698 0dbf b809 0f3f f7a1 2d40 6a7d 56bf
000000e0: ffe1 213e e7c7 cebd 132b d23c bc0a c8c0
-0.07121144 0.8490357 -0.22842492 -1.4880254 -0.57183456 0.598008 2.3809216 -1.1368128
0.3586406 0.7655022 -1.224609 -3.4583814 -0.058270458 2.10785 -0.20946875 -0.10535861
0.58344567 -0.57954335 1.9423243 0.08863814 -0.37149885 0.10919864 -0.29907322 -2.9932168
0.14109965 0.62061816 -0.10579443 -2.72454 -0.7411949 0.47418308 -0.48015678 -0.48275208
-0.90730584 0.033279505 -0.7226906 -1.5812958 -0.43530324 0.36395752 2.739213 -0.75983334
-0.22280951 -0.027475726 0.12309689 -3.6112666 -0.4669505 0.39491954 -0.582577 -2.5470538
1.432194 0.10888979 0.20955968 -1.0114962 -0.55310667 0.55874205 2.7130105 -0.83785117
0.15808867 -0.10096722 0.025655305 -6.2513103

bias f4 [15]
00000000: 01c5 79c0 b3c1 823f 7f9b 073f 8598 a5bf
00000010: 3014 b63f 9c79 2cc0 9e8c 2dc0 8b75 52c0
00000020: 1c6c 35c0 a63d 0d3f 20e0 13c0 ea2d 78c0
00000030: 3467 9e3f cf6f 833f 0cac 0cc0
-3.9026492 1.0215362 0.52971643 -1.293717 1.4224911 -2.6949224 -2.7117076 -3.2884243
-2.8347235 0.55172193 -2.3105545 -3.8778024 1.2375245 1.0268496 -2.198001

weight f4 [15, 15]
00000000: 900a a03f b500 bcbf 1faf efbe 09b0 4b3f
00000010: 6f3a febf 7514 bb3f 3e13 583f a415 663f
00000020: 0cd1 4b3f e524 14c0 6f42 ba3f 0017 963f
00000030: c321 7cc0 cbda 05c0 983c af3f 3cb2 633f
00000040: 3484 e9bf 5474 6ebe fc69 003f 8003 1ac0
00000050: d294 af3f df2c 8c3f 7984 5a3f 4864 383f
00000060: 35e5 04c0 0214 253f dcfb 863f bda8 60c0
00000070: 8d31 f9bf b339 8e3f 166d 12c0 441e a43f
00000080: 57ff 2c40 36b0 96bf 73e2 093e 5273 303d
00000090: b32b e8bf cb0b 3a3f 0183 0d40 dfc9 473f
000000a0: 2fa8 4a3e 541d 913f 0b16 88bd 4e74 a03f
000000b0: f588 0d3e 3597 c23f 503e ddbf 14ed 9bbe
000000c0: 0abb 213f 8c69 13c0 f296 b93f 74b2 903f
000000d0: 66eb 553f 2501 8c3f ad16 05c0 98ed 8f3f
000000e0: de3d a73f 6cab 54c0 2e57 03c0 5f26 b03f
000000f0: 0334 733f d609 bdbf 6e33 b2be b0f3 513f
00000100: 05f1 09c0 c6e3 993f 3855 913f 29bb 7b3f
00000110: 8878 6a3f 857a 1fc0 7a17 993f 8716 7a3f
00000120: b0ef 6ac0 03f7 e3bf 184c bc3f 7e53 8b3f
00000130: a3df babf 19c2 08bf 028b 443f 8520 13c0
00000140: fd12 cd3f 2214 9c3f 8605 9b3f 5326 383f
00000150: 8bd1 0dc0 f94f a33f 8269 bf3f a37c 65c0
00000160: 3be5 eabf 3412 953f 178c c53f b043 abbf
00000170: 8db7 36bf 7399 403f c599 f1bf 9258 be3f
00000180: 3da4 913f 23ad 963f f83f 933f 07dc 19c0
00000190: 4f33 a93f 767d ac3f 7a39 5ac0 ce36 03c0
000001a0: 14e8 bf3f 9bfc 693f 2aa6 f2bf 910f 0dbe
000001b0: 2162 e73e fb39 1fc0 e14b a03f 4228 2b3f
000001c0: 355b 763f a224 3f3f 1cf8 10c0 8654 773f
000001d0: 8f8d a83f 7890 5cc0 8045 d8bf 653a 823f
000001e0: 7519 623f 00a9 10bf f93d 283f 3459 3040
000001f0: 90ed c5bf fb0a 433f 3a06 0c3f e7e6 7b3f
00000200: 409c 653e 6d39 ccbf 102d 203f 85fb 5a3e
00000210: 1471 0ec0 b5ef 58bf c710 823f 99df 893f
00000220: 8e1b babf 5e99 18bf 5f4f 7b3f c001 0ac0
00000230: 2bc5 a13f f992 6d3f 3f12 cc3f 6645 993f
00000240: ca20 00c0 1718 8d3f 5646 d33f 2ab6 52c0
00000250: fbfc 0ac0 65e3 b23f 4cc2 8c3f fa7e b2bf
00000260: 72fe 03bf 327d 283f b2ad f7bf 0d57 bd3f
00000270: 927c a53f 9030 b13f 2dbf 703f 13bb 17c0
00000280: bfc7 963f ccc4 b23f 306a 83c0 4722 f1bf
00000290: 9d8e c53f f6c7 453f 52a5 c3bf bbb3 8cbd
000002a0: 391d e23e 19b3 11c0 12af 993f bbd2 823f
000002b0: ee43 993f 9046 843f 6b1e 0dc0 127e 6c3f
000002c0: edcc 5c3f 3099 5fc0 9c3e 09c0 deb1 913f
000002d0: 5ad8 7f3f 84e3 c4bf 4728 e6be 48c2 d83e
000002e0: 889d 01c0 da11 953f 4e1f 843f 9a3f 6a3f
000002f0: 081e 943f 15c5 21c0 94c2 943f fd17 a03f
00000300: e7d3 53c0 9d38 febf 1bb6 8a3f 41fb 3b3f
00000310: 9f55 04c0 bda6 24bf 05eb f53d 9340 1fc0
00000320: 8a0e 923f b29f 033f 461d 233f f0c7 fa3e
00000330: ab0d 2fc0 c6cf 4a3f 4a10 253f 77ce 3fc0
00000340: 90c9 f9bf f242 613f 8bbf 5bc0 9523 4e3d
00000350: eef6 a03f 0fdb 16c0 317b 7040 5510 2f40
00000360: b180 1540 38bc bfbf 6675 813f 9754 c0be
00000370: e54f 8f40 9805 763f 6d43 d93f e61b f7be
00000380: 4983 b440
1.2503223 -1.4687716 -0.46813294 0.79565483 -1.9861583 1.4615618 0.8440436 0.8987677
0.79615855 -2.3147519 1.4551524 1.1725769 -3.9395607 -2.091479 1.3690367 0.8894384
-1.824347 -0.23286563 0.5016172 -2.4064636 1.3717291 1.0951194 0.8535839 0.7202802
-2.0764897 0.64483654 1.0545611 -3.510299 -1.9468247 1.1111358 -2.287908 1.2821736
2.7030847 -1.1772525 0.1346529 0.043078728 -1.8138336 0.72674245 2.2111208 0.78042406
0.1979072 1.1337075 -0.06644829 1.2535493 0.13821776 1.5202395 -1.7284641 -0.30454314
0.63176024 -2.303317 1.449919 1.130446 0.83562315 1.0937849 -2.079509 1.1244383
1.3065755 -3.3229628 -2.052196 1.376171 0.9500124 -1.4768627 -0.34804863 0.8201246
-2.1553357 1.2022636 1.1354132 0.9833246 0.91590166 -2.491853 1.196029 0.97690624
-3.6708794 -1.7809757 1.4710722 1.0884855 -1.4599499 -0.5342117 0.7677461 -2.2988598
1.602142 1.2193644 1.2111061 0.7193348 -2.2159145 1.2758781 1.4954073 -3.5857322
-1.8351206 1.164618 1.5433377 -1.3380032 -0.71373826 0.75234145 -1.8875052 1.487078
1.1378247 1.1771587 1.1503897 -2.4040544 1.3218783 1.3475788 -3.409758 -2.05022
1.49927 0.9140107 -1.8956959 -0.1377547 0.45192054 -2.4879138 1.2523156 0.66858304
0.9623292 0.7466527 -2.2651434 0.9661335 1.31682 -3.4463177 -1.689621 1.0174071
0.88320094 -0.56507874 0.6571956 2.7554445 -1.5463123 0.7618863 0.54697 0.98399204
0.22422886 -1.5955025 0.6256876 0.2138501 -2.2256517 -0.84740764 1.016137 1.0771362
-1.4539659 -0.5960902 0.98167986 -2.1563568 1.2638296 0.9280239 1.5943068 1.1974304
-2.0020013 1.1022977 1.650584 -3.2923684 -2.1716907 1.3975645 1.0996795 -1.3945
-0.5156013 0.6581603 -1.9349883 1.4792191 1.2928641 1.3842945 0.9404171 -2.370793
1.1779708 1.3966308 -4.1067123 -1.8838586 1.5434147 0.7725824 -1.5284827 -0.06870218
0.4416292 -2.2765563 1.2006552 1.022056 1.1973855 1.0334034 -2.2049816 0.9237987
0.8625019 -3.4937248 -2.1444464 1.1382406 0.999395 -1.5381932 -0.44952604 0.42335725
-2.02524 1.1646073 1.0322053 0.915033 1.1571665 -2.527654 1.162188 1.2507321
-3.3098085 -1.9861027 1.0836824 0.7343026 -2.067726 -0.6431692 0.12007717 -2.4883163
1.1410687 0.5141555 0.6371654 0.48980665 -2.7352092 0.7922329 0.6447798 -2.9969766
-1.9514637 0.87992775 -3.4335659 0.050326902 1.2575357 -2.3571203 3.757519 2.7353718
2.3359797 -1.4979315 1.0113952 -0.37564537 4.4785028 0.96102285 1.6973702 -0.48263472
5.641026

bias f4 [15]
00000000: 0e16 eabf 3a48 e1bf 03d3 8b3f 3fa0 febf
00000010: b13a 01c0 eb7a 0bc0 6773 18c0 e88c e9bf
00000020: ab0b 49bf 78c4 06c0 2684 02c0 cd07 01c0
00000030: 247b fcbf 5f39 eebf 270a e8be
-1.828798 -1.7600167 1.0923771 -1.9892653 -2.0192072 -2.1793773 -2.3820436 -1.8246126
-0.7853343 -2.1057415 -2.0393157 -2.0161011 -1.972508 -1.8611258 -0.45320246

weight f4 [15, 15]
00000000: 8616 fabe ab90 d7be e041 3ac0 30de 5bbe
00000010: 293d d3be 9830 02bf 1576 ca3e 6f43 f6be
00000020: 00b1 a4bf f36a 2fbd f477 6fbe 87b7 7abe
00000030: 313d 07bf 814e 1fbf 16af d9bf 7026 e83f
00000040: 2e2a c93f 62d5 c2bf 128d 0740 2251 d03f
00000050: 6b4f 1440 1558 3340 7962 b03f a3d7 89be
00000060: f9a9 1140 e390 1440 f1b7 fe3f 5993 b63f
00000070: 8398 5a3f c589 e4be 2695 223f e40b 303f
00000080: b36b d9bf e3d0 6c3f 4d1f 6c3f 7ce5 703f
00000090: d7a9 c03f 4f1e ba3e 1916 1ebe bd11 a53f
000000a0: 5a1d 8a3f 4726 f93e ee4a 153f 301d 343e
000000b0: 1675 44bf 51df 3e3f 7b1f 0d3d 0a83 f8bf
000000c0: 21ae 4e3f f261 233f d8e0 573f f414 803f
000000d0: 7250 d4bc 6ac4 2dbf dfc6 6d3f 3ada 7e3f
000000e0: 8c9b 163e ea1f f73e 3087 febd 227c 48bf
000000f0: 1a6c 00bf 5365 e1be c3f6 48c0 fc20 28bf
00000100: 5bd1 4abf 1710 46bf 9a79 a2be 345c d2be
00000110: f14c c2bf d5d3 acbe 5956 2bbf 021c 4abe
00000120: fbcc 3ebf f5f4 84be 0167 08c0 8408 88bf
00000130: da4c 0ebf c81f 17bf 012d 28bf c5b1 1cbf
00000140: 9493 4bbf c354 39bf 93db 2fbf 6331 debf
00000150: 399d 5bbf 3639 5bbf 6452 13bf 58c7 21bf
00000160: 9b26 23bd 778e 2bc0 4ccd a5bf 1eca 9fbf
00000170: 58a4 453f d76c 92bf d9ec 9cbf bd23 96bf
00000180: e884 63bf 461b bcbf 45e6 a3bf 4abf 9cbf
00000190: e269 b7bf cdf1 a2bf 5be6 9bbf 2a8c 56bf
000001a0: 9c99 e7bf d09f 83bf 5644 a7bf ccae 8c3f
000001b0: daf0 53bf dec8 95bf 270b 99bf 67dd 77bf
000001c0: e986 a0bf 217f c8bf 77da acbf f299 9fbf
000001d0: d657 bdbf 428b 5fbf b43f 3dbf 3b0c d1bf
000001e0: 32a9 ac3f 037e 623f 671c f3bf 0247 b03f
000001f0: 8b7d 7d3f 0483 c03f d5e8 fb3f 931d c13e
00000200: fa4f e9be 202a d53f 4a77 8f3f 5648 5f3f
00000210: 26e3 4c3f 6915 243f 511a 36bf 0169 603f
00000220: aaa3 793f 65e6 e8bf 7225 a33f c38e 613f
00000230: 4b8b b13f 24fb f13f 57ab 443f 7e49 15bf
00000240: b542 b03f c978 a83f f3db 433f 3de3 4d3f
00000250: 7de8 a83d 522d 2fbf 327a 6e3f 631e f63e
00000260: 536b b3bf cb12 c33f 544a 693f 263f a43f
00000270: 3a3b e23f f57a 0a3f 5842 c5be bbc0 b93f
00000280: 1f35 a63f afd3 fe3e bb17 773f a66b 503e
00000290: 34b6 27bf d5b1 1b3f 94a9 2bbd 613b 00c0
000002a0: 0d2e c93e 5af0 923e 91a6 1a3f 50a6 923f
000002b0: 1f98 2abd ccd1 32bf de1c 413f 4cd0 093f
000002c0: 398b 223d c454 ff39 fe92 79be 5b1e 48bf
000002d0: 5c1f 0e3f ea3f 033f b796 04c0 a130 8a3f
000002e0: 51f6 663f 55bf 673f 4cbf 8f3f 1874 a73e
000002f0: 908a 44bf 632c 823f cf91 713f f599 0d3e
00000300: 90be cb3e cb25 a73e 3dbc a7bf 8480 223e
00000310: 456f 803e 0018 f0bf 8614 973e 028d bb3e
00000320: 495e 903e 59a9 513f bce2 4abd 6239 14bf
00000330: 27e5 5f3f b0e4 963e 1549 1a3e 3f8b 53bd
00000340: 5a2e 52be 00b1 4cbf 37cb 8e3f 6696 f63e
00000350: 6efe f1bf 9475 b13f b84a 8d3f 5a02 903f
00000360: 800f b43f 2af5 203f 6523 28be dca2 a63f
00000370: 2bf1 873f a42d b93e ccb3 223f b786 2a3e
00000380: b493 64bf
-0.4884531 -0.4210256 -2.9102707 -0.21471477 -0.412576 -0.508554 0.39543214 -0.48098323
-1.2866516 -0.042826604 -0.23385602 -0.24484073 -0.52827746 -0.6222916 -1.7006557 1.813673
1.5715997 -1.5221369 2.1179852 1.627476 2.3173473 2.802251 1.3780051 -0.2692233
2.2759993 2.3213432 1.9899884 1.4263717 0.85388964 -0.4463636 0.6350883 0.68768144
-1.6985992 0.92506236 0.9223526 0.94100165 1.5051831 0.3635125 -0.15438117 1.2896038
1.0790207 0.48662016 0.5831746 0.17589259 -0.7674116 0.74559504 0.03445385 -1.941499
0.8073445 0.6382133 0.8432746 1.0006394 -0.025917266 -0.6787783 0.9288158 0.9955174
0.14707774 0.48266536 -0.12428129 -0.7831441 -0.5016495 -0.44022617 -3.1400611 -0.6567533
-0.792257 -0.773683 -0.317334 -0.4108597 -1.5179731 -0.33755365 -0.6692863 -0.19737247
-0.74531525 -0.25968137 -2.1312869 -1.0627599 -0.55586016 -0.5903287 -0.6569367 -0.61208755
-0.7952206 -0.7239496 -0.6869442 -1.7358822 -0.8578678 -0.8563417 -0.57547593 -0.631948
-0.03983174 -2.6805704 -1.2953277 -1.2483556 0.77203894 -1.1439465 -1.225978 -1.1729656
-0.88874674 -1.4695823 -1.2804648 -1.2245877 -1.4329188 -1.2730042 -1.2179674 -0.83807623
-1.8093753 -1.0283146 -1.306773 1.0990844 -0.82789385 -1.1701925 -1.1956528 -0.9682221
-1.2541171 -1.5663797 -1.350417 -1.2468855 -1.479243 -0.87321866 -0.7392533 -1.6331857
1.3489134 0.8847353 -1.8993043 1.377167 0.9901969 1.5039983 1.968043 0.37717876
-0.4556883 1.665348 1.1208279 0.8721975 0.800341 0.6409517 -0.71133906 0.87660223
0.97515357 -1.8195311 1.2745802 0.8810846 1.3870634 1.8904767 0.76823944 -0.58315265
1.3770357 1.3161861 0.7650749 0.80424863 0.082474686 -0.6842853 0.93155205 0.48070058
-1.4017128 1.524011 0.9112904 1.2831771 1.7674325 0.5409387 -0.3852718 1.4511942
1.2984961 0.49770877 0.96520585 0.20353565 -0.65512395 0.60818225 -0.04190977 -2.0036242
0.39292946 0.28699 0.6041041 1.1457005 -0.04164898 -0.69851375 0.7543467 0.5383346
0.039683554 0.00048700545 -0.2437248 -0.7817132 0.555166 0.512694 -2.071699 1.079609
0.902196 0.90526325 1.1230254 0.3270576 -0.7677393 1.0169796 0.9436311 0.13828261
0.39793825 0.3264602 -1.3104321 0.15869337 0.25084892 -1.8757324 0.29507846 0.36631018
0.28196934 0.8189903 -0.049532637 -0.5790006 0.87459034 0.2947135 0.15066941 -0.051646467
-0.20525494 -0.7995758 1.1155766 0.4816162 -1.8905771 1.3864007 1.1038427 1.1250718
1.406723 0.6287409 -0.16419752 1.3018451 1.0620474 0.36167634 0.635556 0.16652952
-0.8928788

bias f4 [15]
00000000: f813 7bc0 252e 26c0 86f4 4ec0 d10e 47c0
00000010: ca5a 80c0 2052 e0bf 424f 813f 006b ab3e
00000020: ceac 3bc0 cc89 39c0 d6d0 4dc0 e702 58c0
00000030: 5684 3ec0 4095 5bc0 e438 3ec0
-3.9230938 -2.5965664 -3.2336745 -3.1102793 -4.0110826 -1.7525063 1.0102313 0.33480072
-2.9324222 -2.8990355 -3.2158713 -3.3751771 -2.9768271 -3.4309845 -2.9722223

weight f4 [15, 15]
00000000: bcea 1cbe 6689 4ebe 2f46 39bf 872d fcbe
00000010: 28d3 14bd ef6e 7e3f a340 1440 3ff5 cc3f
00000020: 883d 7fbf 9134 1dbd 592b 57bf fbff 86be
00000030: 0308 d0be 021f bbbb 9cee 46bf 0134 b03a
00000040: 29ae d53e c8d0 2d3f 13c9 bc3b db72 2cbe
00000050: da0d 11bf 0f3b 30c0 32a8 11c0 33f5 4c3f
00000060: d0ee 9e3c cc8e 653f c21c b7bd a6a4 953e
00000070: d4af 553e 7238 2e3f 1ad7 a8be 62c3 713f
00000080: 075e 053f 8594 a63e a969 34bd 678c 25bf
00000090: 9537 45c0 3ce3 0ac0 fb87 193f e667 6f3d
000000a0: 7491 333f f31a ac3e 1296 cd3d cea2 133d
000000b0: 98ab 933e 295b 1abc fceb 413f ac42 ca3e
000000c0: f6e2 a53e 8586 84be b4ba 12bf 9ac5 34c0
000000d0: edb0 07c0 bbbc 563f 58ed a73e 4d1c 793f
000000e0: f3af c43d 34c7 283b 2769 aa3d 9d36 313f
000000f0: f0ba 793c d95f 2a3f 8d6b 573f 89a4 dc3e
00000100: 0879 97be 9fc9 f4be c772 50c0 c0e6 f3bf
00000110: df04 2f3f 87f0 df3e a1e0 453f a921 a33e
00000120: 9317 be3c 783c 7f3e e2c0 123f 6c07 30be
00000130: b67c 1e3f 275c 583f 5ec0 7a3e dd3e 243d
00000140: 38fa 42bf 30c3 2dc0 7fa7 05c0 5ec0 483f
00000150: 8caf 9f3e 5b7d 4c3f 53da c8bd 6da1 f63e
00000160: 71b5 d7bd 0213 303f 62eb 8cbe 50da c53e
00000170: 9286 3c3f ab30 cc3e c388 70be 5d58 89be
00000180: 8131 46c0 e9fc 0bc0 4495 1b3f 138f 363e
00000190: a328 493f a8af 7b3d 862d 5f3c cfa7 8f3e
000001a0: 60b0 173f 0f29 c2be ef8b 563f 5e45 463f
000001b0: f335 023d f702 47be 1f77 4bbf fb2d 3fc0
000001c0: 6e79 02c0 d773 673f 5702 e03e ed44 853f
000001d0: a622 edb9 9b09 ac3e 8aed a4bb affe 3e3f
000001e0: a216 64be 9971 d23e 32ae 4d3f f337 383e
000001f0: d678 20be 4251 69bf badc 30c0 d75e 11c0
00000200: db4a 533f f7f3 713e e6c2 913f 8a6e b2bd
00000210: 49f6 003f adb4 27be 0fb9 503f 053d 403e
00000220: 6d31 c23e e934 fe3e 39cf d63e 47db 1fbd
00000230: 4b9d 41bf 3d59 45c0 a752 f7bf 221c 613f
00000240: ee5b 863e da39 763f 4709 973e ab4c cb3d
00000250: 595b a03d 421f 493f f767 743e 12e9 443f
00000260: 668f 083f 58f6 ab3e cc97 25be c6c7 fbbe
00000270: 2c53 4dc0 992f fabf 8fd8 293f 40b6 c33e
00000280: 0a33 733f 4e12 283e 6be7 223e c95c 873e
00000290: 9a4a d13e c911 5f3d 6c46 67be a64e 41bf
000002a0: 9a8d 8fbe d83b ba3d 2d3a 3a3f 1395 0540
000002b0: aee9 ef3f e4a8 5bbf 0a42 e63c db22 6abf
000002c0: 5951 3bbd c247 0bbf fdf2 cf3d d587 4ebf
000002d0: b514 1f3e 0dd6 353f 555e f63e b4fc 443e
000002e0: 5ddf bbbd 4d0d 0dbd 4c7a 56c0 98c0 03c0
000002f0: dee3 203f 4b2c 073f f824 2a3f 4786 0b3e
00000300: 1ca5 073c 3d45 da3e 8358 553f a816 9cbd
00000310: 03d7 eb3e 1aba 143f 3c38 21bd 04c0 a7be
00000320: 7bac a8be 5523 32c0 ad35 19c0 2cf5 1f3f
00000330: 5fca 153e 8381 583f e897 573e 4d6a 14be
00000340: 46e6 14be caf6 bf3e 2870 6c3e aa9a 2abf
00000350: ecfd 38bf 0573 a4be 2255 3c3e a9ed 3c3f
00000360: 84f1 1440 011b ef3f 95bd 4abf dbc2 47be
00000370: 2f1b 6abf 5520 20be e7c6 eebe c736 80be
00000380: 547c 17bf
-0.15323919 -0.20169601 -0.72372717 -0.49253485 -0.036334187 0.9938802 2.316445 1.6012343
-0.99703264 -0.03838021 -0.8405052 -0.26367173 -0.40631112 -0.0057104835 -0.7770784 0.0013443233
0.41734436 0.678967 0.0057612746 -0.16840689 -0.5666176 -2.7536047 -2.2758908 0.80061644
0.019400984 0.89671016 -0.08941032 0.2922718 0.20867854 0.6805488 -0.3297661 0.94438756
0.520966 0.32535186 -0.044046078 -0.6466736 -3.0815175 -2.1701193 0.59973115 0.058448695
0.7014382 0.3361431 0.10038389 0.036043935 0.28841853 -0.009421148 0.7575071 0.39503992
0.3239972 -0.2588388 -0.57316136 -2.8245606 -2.1201737 0.8388173 0.32798266 0.9730881
0.09603872 0.00257535 0.083208375 0.6922396 0.015242323 0.665525 0.84148484 0.4309428
-0.29584527 -0.47810075 -3.2570055 -1.9054794 0.6836681 0.43738195 0.7729588 0.31861618
0.0232046 0.24925411 0.57325566 -0.17190331 0.61909044 0.84515613 0.24487445 0.040099014
-0.76163054 -2.7150383 -2.0883482 0.7841853 0.3118862 0.7987878 -0.09807267 0.48170033
-0.10532654 0.68779004 -0.27523333 0.38643122 0.7364284 0.3988088 -0.2348967 -0.26825228
-3.0967715 -2.1873114 0.60774636 0.17828016 0.7857763 0.061446816 0.0136216935 0.28057715
0.592535 -0.3792195 0.8380727 0.77449596 0.03178973 -0.19434725 -0.7947864 -2.9871814
-2.0386615 0.9041113 0.43751785 1.041166 -0.00045229978 0.33601078 -0.0050331997 0.74607366
-0.22274259 0.41102293 0.80343926 0.17990093 -0.15671095 -0.91139615 -2.763472 -2.2714136
0.82536095 0.23628221 1.1387603 -0.0871249 0.503758 -0.16377516 0.81532377 0.18773277
0.37928334 0.49649742 0.41954973 -0.03902748 -0.75630635 -3.0835717 -1.9322098 0.8793355
0.26242012 0.96182024 0.29499266 0.09926733 0.07829923 0.7856332 0.23867784 0.7691814
0.5334381 0.33586383 -0.16171187 -0.49175853 -3.2082014 -1.9545776 0.6634607 0.38224983
0.94999754 0.16413233 0.15908591 0.26437977 0.4087723 0.05446032 -0.22585458 -0.75510633
-0.2803772 0.090934455 0.7274502 2.0872238 1.8743188 -0.8580458 0.028107662 -0.91459435
-0.045731876 -0.5440637 0.10153768 -0.80676013 0.15535243 0.7102974 0.48118845 0.19237024
-0.091734625 -0.034436513 -3.3512144 -2.05863 0.628477 0.5280196 0.6646266 0.13625441
0.008279111 0.4263095 0.83338183 -0.07621509 0.46062478 0.5809647 -0.03936027 -0.32763684
-0.32944092 -2.7834065 -2.393901 0.6248348 0.1462798 0.8457262 0.21054041 -0.14493676
-0.14540967 0.37492973 0.23089659 -0.6664225 -0.72262454 -0.32119003 0.1839185 0.7380014
2.327241 1.8680116 -0.7919553 -0.19507925 -0.9144773 -0.15637334 -0.46636125 -0.25041792
-0.59174085

bias f4 [15]
00000000: ed07 b63f d128 e1bf 2563 b1bf 5921 d0bf
00000010: 0c29 1fbf f444 c8bf a400 8ebf fe24 c6bf
00000020: d7fb dabf da81 76bf aff1 e1be 6954 a33f
00000030: a7d2 54bf 8c9c b6bf 1c56 a83f
1.4221169 -1.7590581 -1.3858382 -1.6260177 -0.6217201 -1.5646043 -1.1093946 -1.5480039
-1.7108105 -0.9629189 -0.44129702 1.2760135 -0.8313393 -1.4266524 1.3151278

weight f4 [10, 15]
00000000: 5330 29c0 399d 003e b6df 02be cb09 86be
00000010: 037c 8dbe c256 153e 3dd8 67bd 63ce 613c
00000020: d0a1 403d 4d12 efbd a02a 32be ccad 1fc0
00000030: 5df7 08be 5252 6dbe 96b7 35c0 56ca d1bf
00000040: 30c6 4c3f b23c 473f c9b0 6b3f 0006 8d3f
00000050: 4e92 623f 0d48 773f 1c42 253f 2ed2 383f
00000060: c75c 243f 0634 453f 3147 e1bf 0ee1 813f
00000070: 8e1f 223f 7527 d4bf 0b3d 95bf 97fe 813f
00000080: 25c7 6d3f 31e2 873f d1b7 863f 18b0 883f
00000090: f652 7c3f 191c 8b3f 21f2 8b3f bb97 913f
000000a0: 9095 433f ecba 85bf fca5 943f f644 6a3f
000000b0: 0d9f a1bf 50f0 59bf f73e e73f 8813 c23f
000000c0: b966 fe3f a18f 0240 c321 0940 d655 f03f
000000d0: ba13 e13f 31b1 d33f b72a ee3f 739f fe3f
000000e0: 1f75 0fbf a795 f63f ea7e de3f 6c69 2cbf
000000f0: 65b1 39c0 3fb6 25be 25f7 8ebe 648a 61bb
00000100: f60f 71be 79b7 413e 66ef a4be ce73 b43d
00000110: 4fc8 893d f559 5bbe d299 84be f11a 21c0
00000120: c76e 6abe 636b bb3b c2b2 29c0 e762 aabf
00000130: 6f07 763f 7d59 503f 5e04 113f e704 753f
00000140: febc 503f b353 173f 44e6 343f fe49 133f
00000150: 4041 2f3f 7281 343f 08cc 87bf 1425 5f3f
00000160: 3cff f03e 5fbb bdbf 8844 33c0 c355 fc3d
00000170: d983 9f3c 4bca a43e 9add 96bd d4de 26bd
00000180: b3ab da3d b834 b1bd f6aa 05be 207c b2be
00000190: f169 34be 6cf2 14c0 cc73 21bd 6d4e 853d
000001a0: ba18 36c0 6978 23c0 129f 1c3e c439 e73d
000001b0: 35e2 f83d 5c46 39be 14c5 9b3e ff56 5abe
000001c0: 272a 7a3e 9f5a 66be 3361 d1be 668a e5be
000001d0: 2d71 12c0 d133 c93d f486 243d 2c6c 28c0
000001e0: 6dc1 2dc0 845d 8b3e db8d 8dbd f407 4f3b
000001f0: face 423c 8b5e 033e 6a05 9cbe 4ebd 46be
00000200: 4699 6c3d e65c d1bd f758 d8be 63ea 09c0
00000210: c2dd abbe 9033 f93d 4485 34c0 c2d5 07c0
00000220: bbe5 083f ca65 353f 568e 2e3f 799f be3e
00000230: 5e55 253f 4239 523f 664c 803f 9a74 763f
00000240: 5228 403f e23e 223f 4156 cdbf 3fd8 ed3e
00000250: 6f8c c23e cd44 0cc0
-2.6435745 0.12559976 -0.12780651 -0.26179346 -0.27633676 0.14583877 -0.056602705 0.013782117
0.047029316 -0.116734125 -0.17399073 -2.4949827 -0.13375612 -0.23175934 -2.8393302 -1.6389873
0.7998991 0.7782699 0.9206663 1.1017456 0.88504493 0.96594316 0.64554 0.7219571
0.64204067 0.77032506 -1.7599851 1.0146806 0.633294 -1.6574541 -1.1659254 1.015582
0.92881995 1.0615903 1.0524846 1.067874 0.9856409 1.086795 1.0933267 1.137443
0.7640009 -1.0447669 1.1613154 0.91511476 -1.2626663 -0.8513231 1.806609 1.516221
1.9875098 2.0400164 2.1426857 1.8776195 1.7584145 1.653845 1.8606786 1.989241
-0.5603809 1.926442 1.7382481 -0.6734836 -2.9014523 -0.16182803 -0.2792293 -0.0034414763
-0.23541245 0.18917646 -0.32213897 0.088111505 0.06727659 -0.21421035 -0.25898606 -2.5172694
-0.2289382 0.0057195886 -2.6515355 -1.3311433 0.9610509 0.8138655 0.5664729 0.95710605
0.8153838 0.5911209 0.7066386 0.5753478 0.6845894 0.7051002 -1.060914 0.8716595
0.47069728 -1.4822806 -2.8010578 0.12321045 0.01947205 0.32185587 -0.07366486 -0.04073985
0.1067728 -0.086526334 -0.13053498 -0.34860325 -0.17618538 -2.3272963 -0.039417073 0.06509099
-2.8452592 -2.5542243 0.15295056 0.11290315 0.121525206 -0.18093246 0.30423796 -0.21322249
0.24430142 -0.22495507 -0.4089447 -0.44832152 -2.2881577 0.09824336 0.040167764 -2.6316023
-2.7149308 0.27219784 -0.069118224 0.0031590434 0.011890167 0.12829034 -0.3047288 -0.19408152
0.05776336 -0.10222797 -0.42255375 -2.1549308 -0.33567625 0.12168038 -2.820634 -2.1224217
0.5347554 0.7085844 0.6818594 0.37231043 0.64583385 0.8211862 1.0023315 0.9627167
0.75061524 0.633772 -1.6041948 0.46454045 0.37997767 -2.1916993

bias f4 [10]
00000000: 1375 afbf abd1 41bf 3222 a7be b77c da3d
00000010: 9f13 c1bf cb14 1ebf e313 c2bf 6b5d c3bf
00000020: 2f47 c4bf 14e7 99bf
-1.3707603 -0.7571055 -0.32643276 0.10668319 -1.5084113 -0.6175048 -1.5162319 -1.5262884
-1.5334224 -1.2023644

weight f4 [10, 10]
00000000: fcc0 ac3f 3be1 843f 7b44 cf3f e6d0 df3f
00000010: edb4 b43f 5902 c73f 00d3 9f3f 2663 793f
00000020: c9ca a13f 5950 973f 8a8d 8b3f 2d69 a73f
00000030: b014 943f 6f94 993f 526c d43f 26f1 9b3f
00000040: d9c4 c53f da1b aa3f b7ea d63f f7fd 953f
00000050: 3a13 9f3f 6dfa 803f eb7a 993f a0e5 ac3f
00000060: d27f c53f 9590 cd3f d3b1 0b40 794e d13f
00000070: f2a9 0640 c64a bd3f 9aef 91bf 1455 b1bf
00000080: 524f 06c0 84e5 f1bf a0aa c2bf 5531 d9bf
00000090: 46b1 dabf 7d41 9fbf 1245 c3bf dad5 90bf
000000a0: 03e8 8c3f 45f8 df3f b145 d43f 5370 0e40
000000b0: 005a a03f 6373 d33f 3e3f e93f d3de b63f
000000c0: 9953 d23f 5997 a43f 9a9d b63f 3221 8a3f
000000d0: 04b1 9a3f b2be cf3f 4bf3 df3f f136 bc3f
000000e0: 220c f73f c860 c03f adc6 e73f fb0b ac3f
000000f0: fd3e e4bf b02e cabf 5b10 0ec0 afc0 12c0
00000100: 4fee bdbf c008 e5bf 9db9 d2bf 4272 f4bf
00000110: 7e9f edbf 9d71 babf 5c9b b53f 1f20 983f
00000120: 6f89 ca3f cf25 e73f 729f ad3f 6191 bf3f
00000130: cfd7 c23f ea84 6c3f c69e a13f f780 553f
00000140: a3cd abbf 061f e8bf d707 e5bf f221 07c0
00000150: 58ff b3bf 4db4 c2bf 8eef dbbf 34e7 a0bf
00000160: 9476 c3bf 1932 abbf fa9b 7b3f a56d 933f
00000170: f58b b83f 6b88 0740 6673 b73f 1e7b d63f
00000180: cecb b53f 7b60 c33f 0fc8 b73f ce25 6c3f
1.3496394 1.0381235 1.6192774 1.7485626 1.4117714 1.5547591 1.2486267 0.97416914
1.264001 1.1821395 1.0902569 1.3078972 1.1568813 1.1998423 1.6595557 1.2182968
1.5450698 1.328975 1.6790379 1.1718129 1.2427742 1.0076424 1.1990637 1.3507576
1.5429633 1.6059748 2.1827285 1.6352073 2.1041226 1.4788444 -1.1401246 -1.3854089
-2.0985913 -1.8898168 -1.5208321 -1.696818 -1.708535 -1.244186 -1.5255454 -1.1315262
1.1008304 1.7497641 1.6583768 2.2256057 1.2527466 1.6519588 1.8222425 1.428675
1.6431762 1.2858688 1.4266846 1.079138 1.2085271 1.623007 1.7496122 1.4704267
1.9300578 1.5029535 1.8107506 1.3441156 -1.7831722 -1.5795498 -2.2197483 -2.2930105
-1.4838351 -1.7893295 -1.6462895 -1.9097369 -1.8564298 -1.4565922 1.4188037 1.1884803
1.5823191 1.8058413 1.3564284 1.4966241 1.522211 0.9239031 1.2626579 0.8339991
-1.342213 -1.8134468 -1.7893018 -2.1114469 -1.40623 -1.5211273 -1.7182481 -1.2570558
-1.5270562 -1.3374664 0.98284876 1.1517836 1.4417711 2.1177013 1.4332092 1.6756322
1.4202821 1.5263819 1.4357928 0.92245185

bias f4 [10]
00000000: ad70 47c0 e2da 5ec0 3e91 5bc0 15bc 3040
00000010: bf92 35c0 1e3e 53c0 1cf7 1c40 590d 45c0
00000020: b157 3a40 6b88 43c0
-3.1162522 -3.4821095 -3.4307399 2.7614796 -2.8370817 -3.3006663 2.4525824 -3.0789397
2.9116023 -3.0552013

weight f4 [1, 10]
00000000: df3d 6641 81c3 6441 999f 6a41 db82 b1c0
00000010: ab76 6141 44c3 7f41 a338 a5c0 808c 7341
00000020: f8af cdc0 b4bb 6441
14.390105 14.29773 14.663964 -5.5472236 14.091472 15.985172 -5.1631637 15.221802
-6.4277306 14.295826
