Model1-dataset512-epoch5000-lr0.05.pth (torch, 13074 bytes, 13 tensors)

weight f4 [15, 4]
0.02403127 0.3379744 0.118599825 -0.7705125 -0.598454 0.880735 0.6875586 -0.4157156
-0.3342801 0.47953987 0.6183178 -0.2252404 -0.7289709 0.80004555 0.5344031 -1.0033276
0.59513 0.1666301 -0.66196674 0.2994825 -0.25846604 0.14131284 -0.055883143 -0.5431802
-0.48350134 0.65205634 -0.00704158 -0.8440181 -0.7061566 0.7768048 0.68384326 -1.0940714
-0.102342755 0.11077782 0.7069889 -1.1236072 -0.7215592 0.54436386 0.26263908 -0.9883844
-0.6624092 0.2829508 0.5219486 -0.20173213 -0.57516336 0.3245675 0.43497607 -0.6832664
0.10389352 -0.10851474 -0.5896753 -0.26445472 0.44970718 -0.18358937 -0.37933904 -0.26702574
-0.5632018 0.62214386 0.28281277 -0.71649534
00000000: 3add c43c fb0a ad3e 77e4 f23d 4f40 45bf
00000010: 4834 19bf d977 613f d703 303f add8 d4be
00000020: c326 abbe 4086 f53e 134a 1e3f 6ba5 66be
00000030: d69d 3abf c9cf 4c3f a4ce 083f 0a6d 80bf
00000040: 715a 183f 15a1 2a3e a776 29bf c555 993e
00000050: a955 84be 50b4 103e b9e5 64bd dc0d 0bbf
00000060: 7d8d f7be 2aed 263f 0ebd e6bb 9211 58bf
00000070: aec6 34bf aedc 463f 5a10 2f3f 880a 8cbf
00000080: 1499 d1bd 7bdf e23d 39fd 343f 5cd2 8fbf
00000090: 1bb8 38bf 6e5b 0b3f a178 863e c306 7dbf
000000a0: a693 29bf edde 903e 6c9e 053f de92 4ebe
000000b0: e83d 13bf b62d a63e 2fb5 de3e 8cea 2ebf
000000c0: 20c6 d43d fa3c debd f6f4 16bf 9c66 87be
000000d0: 0540 e63e dafe 3bbe ba38 c2be 99b7 88be
000000e0: fe2d 10bf d244 1f3f d6cc 903e 3d6c 37bf

bias f4 [15]
0.09755652 0.64034665 0.9078147 0.49015453 -0.5337074 0.36447266 0.1683861 0.64680755
0.2080999 0.0034361035 -0.10818883 0.44979575 -0.27501756 0.43317667 0.64804626
00000000: b6cb c73d c2ed 233f 8b66 683f 89f5 fa3e
00000010: 0ca1 08bf 299c ba3e 686d 2c3e 2e95 253f
00000020: 2418 553e 4030 613b 1b92 ddbd a14b e63e
00000030: 1acf 8cbe 55c9 dd3e 5ce6 253f

weight f4 [15, 15]
0.64309365 0.37098244 0.53227395 0.41889855 0.4212451 0.74779433 0.45851356 0.658547
0.44831625 0.36561698 0.54609597 0.6682695 0.32233557 0.27835926 0.46445578 0.60780495
0.7278314 0.66981924 0.7214903 0.4085395 0.34905118 0.62521535 0.7464265 0.5509737
0.48951653 0.34990785 0.7994686 0.48053104 0.6348936 0.6221382 0.26997167 0.57183033
0.49340272 0.44671577 -0.11132747 0.6274659 0.11943196 0.19840877 0.30214575 0.24233131
0.41897318 0.32486582 0.3024514 0.05229848 0.2706794 0.5061059 0.788179 0.71195316
0.67436916 0.2899848 0.5615946 0.71928596 0.45536423 0.7615053 0.6522689 0.5270129
0.53983456 0.50847495 0.72003955 0.4648301 0.29074344 0.53350866 0.56613517 0.26619965
0.4142847 0.62489283 0.2616842 0.46899712 0.32731226 0.23262855 0.32055074 0.2738778
0.6246724 0.22847734 0.62435055 0.2684378 0.52905667 0.5778408 0.43019104 0.55209273
0.7629225 0.22191708 0.6963187 0.6153491 0.62400097 0.24698232 0.66933304 0.26055944
0.3149788 0.34202182 -0.15843542 -0.35215083 0.09577431 -0.43678206 -0.1015961 -0.26541507
0.080215946 -0.26008698 -0.34671876 -0.24302645 -0.3625614 0.12206474 -0.37638244 0.00549073
0.032942776 0.41380784 0.59406483 0.60755557 0.37971857 0.6767333 0.50652504 0.46794334
0.49768054 0.78958046 0.7993661 0.80895966 0.6740181 0.502963 0.73428756 0.63900465
0.3222464 0.8133691 0.62829703 0.5852585 0.5048868 0.85903823 0.54220086 0.541458
0.5870451 0.6450423 0.5039892 0.44151518 0.6581162 0.39541566 0.7981719 0.0076954477
-0.33635134 -0.13337827 -0.069271706 -0.06598133 0.16605565 -0.038577422 0.033203762 0.08724028
-0.34158117 -0.06691295 0.085956715 -0.06725155 -0.07734143 -0.35481942 0.61917716 0.75266176
0.5630551 0.3053878 0.716139 0.49618194 0.52710783 0.2639255 0.24404545 0.39559147
0.55759686 0.5443043 0.56486756 0.32916403 0.63427526 0.49987447 0.5619189 0.7364391
0.602615 0.24527372 0.6409234 0.37565696 0.46099776 0.49684122 0.6145553 0.29755712
0.6275705 0.25700092 0.28787342 0.50769705 0.043198675 0.082361706 0.14686538 0.4941844
0.23002264 0.35595495 0.4808274 0.18843652 0.22877093 0.35882816 0.39396372 0.5357096
0.15053049 0.14886804 0.51921517 0.6694108 0.51418895 0.4312832 0.42085892 0.5032973
0.5905527 0.7038469 0.3264508 0.6366163 0.6650315 0.52815664 0.64068425 0.43705782
0.53785497 0.62798387 0.47616494 0.8437988 0.79322 0.55933464 0.39411843 0.492602
0.86038345 0.5920369 0.45394105 0.45541146 0.7330255 0.5550423 0.5061728 0.41708288
0.5566064
00000000: c9a1 243f 69f1 bd3e 1b43 083f df79 d63e
00000010: 70ad d73e 736f 3f3f 4ac2 ea3e 8996 283f
00000020: b589 e53e 2632 bb3e f2cc 0b3f b613 2b3f
00000030: 2b09 a53e 1b85 8e3e 26cd ed3e 1b99 1b3f
00000040: 2953 3a3f 4679 2b3f 97b3 383f 172c d13e
00000050: d6b6 b23e 1d0e 203f cf15 3f3f 9d0c 0d3f
00000060: e9a1 fa3e 1f27 b33e f9a9 4c3f 2a08 f63e
00000070: 6388 223f 7344 1f3f ba39 8a3e 7963 123f
00000080: 489f fc3e eeb7 e43e a8ff e3bd 9ba1 203f
00000090: be98 f43d ab2b 4b3e d9b2 9a3e b325 783e
000000a0: a783 d63e d054 a63e e9da 9a3e ee36 563d
000000b0: 7e96 8a3e 2890 013f 19c6 493f 9042 363f
000000c0: 75a3 2c3f e378 943e aac4 0f3f 2023 383f
000000d0: 8025 e93e 03f2 423f 18fb 263f 51ea 063f
000000e0: 9932 0a3f 6a2b 023f 8354 383f 36fe ed3e
000000f0: 53dc 943e 0694 083f 3cee 103f 524b 883e
00000100: 201d d43e faf8 1f3f 79fb 853e 6420 f03e
00000110: 7995 a73e 2e36 6e3e 3a1f a43e b639 8c3e
00000120: 88ea 1f3f f7f5 693e 70d5 1f3f ae70 893e
00000130: 4270 073f 60ed 133f 0042 dc3e f355 0d3f
00000140: e44e 433f 3b3e 633e f141 323f 8587 1d3f
00000150: 87be 1f3f efe8 7c3e 6959 2b3f 0c68 853e
00000160: e744 a13e 7c1d af3e e53c 22be 1d4d b4be
00000170: 5225 c43d e6a1 dfbe 9e11 d0bd 7ce4 87be
00000180: 4248 a43d 1f2a 85be 1f85 b1be eddb 78be
00000190: a6a1 b9be 14fd f93d 33b5 c0be 95eb b33b
000001a0: 01ef 063d 9fde d33e a214 183f c388 1b3f
000001b0: 796a c23e 653e 2d3f a0ab 013f 4596 ef3e
000001c0: fccf fe3e f221 4a3f 42a3 4c3f fb17 4f3f
000001d0: 738c 2c3f 2fc2 003f 45fa 3b3f cf95 233f
000001e0: 7bfd a43e f538 503f 13d8 203f 80d3 153f
000001f0: 4340 013f eee9 5b3f adcd 0a3f fe9c 0a3f
00000200: 9648 163f 7e21 253f 7005 013f 470e e23e
00000210: 4e7a 283f ec73 ca3e fe54 4c3f 182a fc3b
00000220: 3e36 acbe 5094 08be 53de 8dbd 3821 87bd
00000230: 7e0a 2a3e 5c03 1ebd ab00 083d 08ab b23d
00000240: bae3 aebe a809 89bd 130a b03d 2ebb 89bd
00000250: 2f65 9ebd e4aa b5be 6582 1e3f 71ae 403f
00000260: 6124 103f ca5b 9c3e e354 373f 8f0b fe3e
00000270: 8af0 063f 3e21 873e 0de7 793e f78a ca3e
00000280: abbe 0e3f 8757 0b3f 299b 103f 3088 a83e
00000290: dd5f 223f 8cef ff3e ebd9 0f3f 4687 3c3f
000002a0: fa44 1a3f 0929 7b3e 8e13 243f 1c56 c03e
000002b0: e607 ec3e f961 fe3e 7f53 1d3f 6859 983e
000002c0: 76a8 203f a095 833e 2564 933e 6ff8 013f
000002d0: 18f1 303d 41ad a83d e163 163e bd05 fd3e
000002e0: 0e8b 6b3e ba3f b63e 022f f63e 81f5 403e
000002f0: ed42 6a3e 53b8 b73e 9db5 c93e 4424 093f
00000300: aa24 1a3e dd70 183e 49eb 043f 825e 2b3f
00000310: e3a1 033f 27d1 dc3e d27a d73e 18d8 003f
00000320: 762e 173f 4f2f 343f 8f24 a73e 49f9 223f
00000330: 813f 2a3f 4635 073f e203 243f 0bc6 df3e
00000340: ddb0 093f 8dc3 203f e4cb f33e 3303 583f
00000350: 7710 4b3f 8e30 0f3f e4c9 c93e 5436 fc3e
00000360: 1742 5c3f bb8f 173f f66a e83e b12b e93e
00000370: 8fa7 3b3f 4117 0e3f 8a94 013f e38b d53e
00000380: c27d 0e3f

bias f4 [15]
0.81818324 0.5213299 0.37035203 0.31369844 0.6752375 0.5088401 -0.2946457 0.47435462
0.81634265 -0.23310664 0.3932869 0.6651023 0.4469003 0.52912617 0.47982413
00000000: 7574 513f e075 053f c89e bd3e 159d a03e
00000010: 5ddc 2c3f 5843 023f cddb 96be 9cde f23e
00000020: d5fb 503f 82b3 6ebe e75c c93e 2544 2a3f
00000030: 1ed0 e43e d074 073f 82ab f53e

weight f4 [15, 15]
-0.5229814 -0.6239882 -0.25214222 -0.4249508 -0.69561696 -0.52855253 -0.3089107 -0.73713803
-0.5844599 -0.34109527 -0.28156668 -0.46827564 -0.2781819 -0.37574843 -0.72709054 0.72096205
0.58405864 0.4446118 0.65887904 0.3479572 0.4679511 0.39199838 0.54129106 0.7787579
0.77651626 0.6576931 0.62539554 0.51979554 0.44839388 0.76089776 0.35635313 0.38986263
0.29761204 0.35317156 0.5524451 0.51088756 0.49431482 0.5336487 0.46430832 0.5976078
0.45744556 0.7066988 0.48873946 0.5332466 0.5060927 0.28018928 0.45323914 0.47516185
0.2953664 0.6677855 0.5727827 0.15757847 0.27000362 0.66617596 0.24514407 0.38973778
0.56483716 0.584526 0.5226744 0.60948986 -0.35287702 0.007101559 0.077851005 -0.36469337
0.04043112 -0.17367642 -0.32625145 -0.28911403 0.030168256 -0.07907343 -0.22285622 -0.22180519
-0.06489684 -0.30678776 0.0076867137 -0.53882235 -0.5795018 -0.50675905 -0.4991801 -0.6284304
-0.26225054 -0.2648811 -0.13409446 -0.29287156 -0.1263018 -0.44317156 -0.2492562 -0.35828888
-0.1455365 -0.29427865 0.5689004 0.43098664 0.7295981 0.61430883 0.26473373 0.4155511
0.47785625 0.6898871 0.48775798 0.3814434 0.7503746 0.5781215 0.7269649 0.7171147
0.36996552 0.5836789 0.72549194 0.4663335 0.6401248 0.7535755 0.3730157 0.38564342
0.67656815 0.46783316 0.47594994 0.69219756 0.41481915 0.3299227 0.4184305 0.6504341
0.7870023 0.57683146 0.32507583 0.4465853 0.43593276 0.61302495 0.29652184 0.45262662
0.7990565 0.39110172 0.6968584 0.7057446 0.44607762 0.38151821 0.54365313 0.51534337
0.36694866 0.37785134 0.2817042 0.7191654 0.6420902 0.2368034 0.6681027 0.37895203
0.48856103 0.48902783 0.7035804 0.65715504 0.6216933 0.7479287 0.42999202 0.7410918
0.6846071 0.7887658 0.65076846 0.32670736 0.48747593 0.7244511 0.44775212 0.43556952
0.40487728 0.7582815 0.4794236 0.6976334 0.53908616 0.2647367 0.19998606 -0.014011697
0.12625058 0.16183999 -0.041523535 0.11613421 0.1002845 0.36975178 0.2818599 0.2329005
0.34545282 0.1632778 0.2243407 0.37664 -0.44171253 -0.2841329 -0.5088954 -0.35208458
-0.2797416 -0.5205281 -0.5532333 -0.31758782 -0.39644873 -0.33180714 -0.1432789 -0.3286465
-0.25943148 -0.45582822 -0.49176708 0.5878807 0.7735639 0.5121971 0.68212193 0.46024308
0.40815452 0.5278685 0.68135136 0.6626987 0.65500474 0.6619197 0.44622096 0.7835911
0.6016201 0.41445845 0.58750814 0.66236204 0.3575875 0.3788094 0.68982697 0.6139277
0.6753377 0.31191388 0.41555542 0.28642446 0.29167432 0.67991096 0.24348642 0.60872096
0.6843867
00000000: 1ce2 05bf b1bd 1fbf c918 81be 2793 d9be
00000010: f413 32bf 384f 07bf 8b29 9ebe 14b5 3cbf
00000020: 2a9f 15bf 0aa4 aebe 8229 90be d3c1 efbe
00000030: dc6d 8ebe 1962 c0be 9b22 3abf f890 383f
00000040: de84 153f 28a4 e33e 4cac 283f 7227 b23e
00000050: 4997 ef3e 03b4 c83e 0d92 0a3f ae5c 473f
00000060: c5c9 463f 935e 283f ec19 203f 5211 053f
00000070: e293 e53e 32ca 423f eb73 b63e 139c c73e
00000080: 9b60 983e e7d2 b43e 0b6d 0d3f 87c9 023f
00000090: d516 fd3e 349d 083f d2b9 ed3e d3fc 183f
000000a0: 4e36 ea3e 36ea 343f 0f3c fa3e d982 083f
000000b0: 4b8f 013f f874 8f3e f60e e83e 6a48 f33e
000000c0: 443a 973e fef3 2a3f e3a1 123f 405c 213e
000000d0: ea3d 8a3e 828a 2a3f 0c07 7b3e b68b c73e
000000e0: 2b99 103f 7fa3 153f fdcd 053f 8707 1c3f
000000f0: 4cac b4be 32b4 e83b 5970 9f3d 17b9 babe
00000100: 1a9b 253d 3bd8 31be 6e0a a7be c106 94be
00000110: 6b23 f73c 40f1 a1bd 6c34 64be e620 63be
00000120: a2e8 84bd 4913 9dbe d4e0 fb3b 43f0 09bf
00000130: 3b5a 14bf f6ba 01bf 8994 ffbe d1e0 20bf
00000140: b445 86be 7f9e 87be 0f50 09be 43f3 95be
00000150: 4255 01be 62e7 e2be 043d 7fbe a471 b7be
00000160: 8507 15be b1ab 96be 75a3 113f 48aa dc3e
00000170: f1c6 3a3f 5843 1d3f 2e8b 873e 1dc3 d43e
00000180: 93a9 f43e 719c 303f 6abb f93e 8d4c c33e
00000190: 8d18 403f c5ff 133f 5f1a 3a3f d494 373f
000001a0: 1f6c bd3e fb6b 153f d7b9 393f 44c3 ee3e
000001b0: 38df 233f 53ea 403f eafb be3e 0e73 c53e
000001c0: 9233 2d3f d487 ef3e b6af f33e dc33 313f
000001d0: 2d63 d43e a1eb a83e 863c d63e d982 263f
000001e0: fc78 493f 3aab 133f 5770 a63e d4a6 e43e
000001f0: 9432 df3e 34ef 1c3f b6d1 973e adbe e73e
00000200: f78e 4c3f 7c3e c83e 5065 323f aeab 343f
00000210: 4964 e43e 5b56 c33e da2c 0b3f 8bed 033f
00000220: b2e0 bb3e bb75 c13e 883b 903e 391b 383f
00000230: 0660 243f 977c 723e c708 2b3f 0006 c23e
00000240: ac24 fa3e db61 fa3e d81d 343f 503b 283f
00000250: 4b27 1f3f 4178 3f3f ea27 dc3e 31b8 3d3f
00000260: 6942 2f3f 8eec 493f c398 263f 3046 a73e
00000270: 7296 f93e a175 393f c43f e53e f802 df3e
00000280: 134c cf3e bd1e 423f 0377 f53e 1a98 323f
00000290: 8d01 0a3f 928b 873e 25c9 4c3e 5191 65bc
000002a0: d547 013e 62b9 253e 9514 2abd c6d7 ed3d
000002b0: f661 cd3d 1b50 bd3e f14f 903e 787d 6e3e
000002c0: 31df b03e 4c32 273e 92b9 653e f5d6 c03e
000002d0: 2528 e2be de79 91be f846 02bf 6e44 b4be
000002e0: 4a3a 8fbe 5441 05bf b3a0 0dbf df9a a2be
000002f0: 54fb cabe a0e2 a9be b4b7 12be 5b44 a8be
00000300: 34d4 84be 5162 e9be e5c8 fbbe 597f 163f
00000310: 4908 463f 591f 033f 8b9f 2e3f fba4 eb3e
00000320: a1f9 d03e 6422 073f 0b6d 2e3f 9fa6 293f
00000330: 64ae 273f 9273 293f 1377 e43e 6d99 483f
00000340: c603 1a3f e633 d43e ef66 163f 8f90 293f
00000350: b515 b73e 4ef3 c13e 8098 303f 5e2a 1d3f
00000360: eee2 2c3f 2db3 9f3e aec3 d43e 3aa6 923e
00000370: 5656 953e a50e 2e3f 8154 793e 23d5 1b3f
00000380: f733 2f3f

bias f4 [15]
-0.55668384 0.29522425 0.6828134 0.27099362 -0.14113277 -0.11835993 0.25930548 0.55279094
0.6691606 0.44478688 0.6977177 -0.0082744 -0.4307532 0.75534385 0.2961215
00000000: d582 0ebf a227 973e dccc 2e3f adbf 8a3e
00000010: 1c85 10be b166 f2bd b0c3 843e b583 0d3f
00000020: 1c4e 2b3f 1bbb e33e a19d 323f 5991 07bc
00000030: af8b dcbe 375e 413f 3d9d 973e

weight f4 [15, 15]
0.4158693 0.41149804 0.45104247 0.32308063 0.37716937 0.34685537 0.84791076 0.67016524
0.5379344 0.8107728 0.647813 0.37011737 0.35873798 0.6674096 0.6845199 0.37829426
0.590343 0.65675133 0.4206704 0.6352113 0.3223607 0.55849034 0.55391484 0.6368627
0.35750917 0.76866615 0.33048826 0.4131759 0.73951685 0.56925774 -0.6605822 -0.7099751
-0.7142076 -0.44972098 -0.23450343 -0.68405575 -0.603946 -0.32931867 -0.6867413 -0.65648395
-0.6661 -0.2989579 -0.24317896 -0.3234974 -0.37336022 0.32929435 0.6516727 0.70819366
0.6343514 0.3953711 0.3126144 0.34019902 0.75155693 0.62460744 0.5794266 0.42055446
0.59991384 0.520699 0.559813 0.7159762 0.2655308 0.70283043 0.58085257 0.3398908
0.53457403 0.3338708 0.60721755 0.53601503 0.74329406 0.41177177 0.7621614 0.63614416
0.27590966 0.5597509 0.7167454 0.10929189 0.5673715 0.6450426 0.39725906 0.25990665
0.17946701 0.48638237 0.5249233 0.54674333 0.6296564 0.58208275 0.16135845 0.31734186
0.55649304 0.6889462 0.2722948 0.70905846 0.7878139 0.69257635 0.5314966 0.3371017
0.80119526 0.8410876 0.71277565 0.6254364 0.34458503 0.47713464 0.7490138 0.5479922
0.7987784 0.3468882 0.5345981 0.4705395 0.7093732 0.32937238 0.44407058 0.58029515
0.49518424 0.7440598 0.6862611 0.46172947 0.39376223 0.27667415 0.6877669 0.51781803
0.36724707 0.3467322 0.59845203 0.68005043 0.5948881 0.26074225 0.7652544 0.44083264
0.46021357 0.33742082 0.68247193 0.6856044 0.31055298 0.7811704 0.54850656 -0.22613111
-0.24317735 -0.272081 -0.2346676 -0.47132868 -0.24009208 -0.27521867 -0.1866424 -0.2726652
-0.18231119 -0.2558277 -0.35145417 -0.17790052 0.0035897659 -0.23787585 0.68425006 0.70124227
0.5849178 0.38858208 0.56410414 0.27461863 0.34328875 0.5165223 0.64850295 0.7877429
0.4154835 0.73394 0.5057118 0.31050524 0.7314258 0.31906724 0.5554539 0.59729415
0.7165723 0.7637302 0.8173657 0.6337416 0.6074676 0.60429037 0.50354624 0.6793477
0.7533965 0.5653102 0.69152796 0.44317943 0.47845602 0.30307883 0.38978493 0.80905396
0.33939856 0.5784429 0.757996 0.39304397 0.7510261 0.42410427 0.70666265 0.5048395
0.33416334 0.76388466 0.7967388 0.011041213 0.21927698 0.22294281 0.615021 0.11752203
0.39231563 0.61752844 0.5098751 0.63884556 0.46019864 0.65653145 0.3265305 0.25667238
0.29775488 0.32723522 0.32399288 0.69937474 0.3834921 0.4073332 0.47913665 0.6454764
0.66213214 0.7573965 0.77859783 0.51758736 0.7560921 0.30364808 0.40041003 0.36096454
0.36074743
00000000: d2ec d43e dfaf d23e 0aef e63e d36a a53e
00000010: 581c c13e 0797 b13e ae10 593f f38f 2b3f
00000020: 12b6 093f ce8e 4f3f 13d7 253f 0680 bd3e
00000030: 81ac b73e 5bdb 2a3f b23c 2f3f c9af c13e
00000040: b820 173f db20 283f 1c62 d73e 359d 223f
00000050: 760c a53e 39f9 0e3f 5dcd 0d3f 6f09 233f
00000060: 710b b73e 4ec7 443f c235 a93e cb8b d33e
00000070: fa50 3d3f e0ba 113f ea1b 29bf eec0 35bf
00000080: 4fd6 36bf d441 e6be ab21 70be 471e 2fbf
00000090: 349c 1abf 759c a8be 47ce 2fbf 550f 28bf
000000a0: 8885 2abf 0311 99be e803 79be 74a1 a5be
000000b0: 1229 bfbe 4599 a83e 06d4 263f 2e4c 353f
000000c0: da64 223f 156e ca3e ff0e a03e 912e ae3e
000000d0: 0966 403f 46e6 1f3f 4d55 143f ea52 d73e
000000e0: f493 193f 884c 053f e84f 0f3f 374a 373f
000000f0: a7f3 873e b2ec 333f c1b2 143f 2b06 ae3e
00000100: d8d9 083f 1df1 aa3e 9c72 1b3f 4838 093f
00000110: 8548 3e3f c0d3 d23e 021d 433f 58da 223f
00000120: 0844 8d3e d64b 0f3f a07c 373f 6dd4 df3d
00000130: 423f 113f 8321 253f 8a65 cb3e 7c12 853e
00000140: 33c6 373e 1c07 f93e 6061 063f 5ff7 0b3f
00000150: 2931 213f 6003 153f 263b 253e a27a a23e
00000160: 5476 0e3f c75e 303f 396a 8b3e db84 353f
00000170: 2cae 493f af4c 313f 2910 083f 9898 ac3e
00000180: 221b 4d3f 8451 573f 7778 363f 9a1c 203f
00000190: 736d b03e fe4a f43e 5ebf 3f3f 3849 0c3f
000001a0: be7c 4c3f 559b b13e 6cdb 083f 8eea f03e
000001b0: 7b99 353f 7fa3 a83e 385d e33e 398e 143f
000001c0: ca88 fd3e b47a 3e3f cfae 2f3f ce67 ec3e
000001d0: 349b c93e 3ca8 8d3e 7e11 303f b98f 043f
000001e0: cf07 bc3e e286 b13e 2734 193f c917 2e3f
000001f0: 964a 183f 0280 853e b6e7 433f d1b4 e13e
00000200: 1da1 eb3e 6cc2 ac3e 7bb6 2e3f c583 2f3f
00000210: cd00 9f3e c9fa 473f ed6a 0c3f ea8e 67be
00000220: 7c03 79be 334e 8bbe b44c 70be fe51 f1be
00000230: b3da 75be 76e9 8cbe 2f1f 3fbe c69a 8bbe
00000240: c9af 3abe d9fb 82be cdf1 b3be 8e2b 36be
00000250: 4742 6b3b ba95 73be 032b 2f3f 9d84 333f
00000260: 2cbd 153f 3bf4 c63e 2169 103f d09a 8c3e
00000270: 8bc3 af3e ce3a 043f 4a04 263f 85a9 493f
00000280: 41ba d43e 7ee3 3b3f 5476 013f 8bfa 9e3e
00000290: b93e 3b3f c85c a33e 3a32 0e3f 45e8 183f
000002a0: 4871 373f d383 433f e13e 513f e43c 223f
000002b0: ff82 1b3f c6b2 1a3f 68e8 003f bbe9 2d3f
000002c0: 98de 403f 2bb8 103f fa07 313f 6ae8 e23e
000002d0: 30f8 f43e 262d 9b3e e491 c73e 291e 4f3f
000002e0: a6c5 ad3e d514 143f 070c 423f 0f3d c93e
000002f0: 3f43 403f 3224 d93e d8e7 343f 293d 013f
00000300: 7517 ab3e f28d 433f 13f7 4b3f 34e6 343c
00000310: 258a 603e 1f4b 643e 0472 1d3f 64af f03d
00000320: 98dd c83e 5816 1e3f 2d87 023f 628b 233f
00000330: 289f eb3e 7212 283f 012f a73e 906a 833e
00000340: 5473 983e 608b a73e 65e2 a53e 390a 333f
00000350: 1459 c43e fa8d d03e 6651 f53e f13d 253f
00000360: 7e81 293f bde4 413f 3052 473f 9b80 043f
00000370: 408f 413f c377 9b3e 8b02 cd3e 58d0 b83e
00000380: e3b3 b83e

bias f4 [15]
0.6260297 0.3231673 -0.5337356 0.31508076 0.5639295 0.38762853 0.30978736 0.34213856
0.38239804 -0.08704197 0.6047044 0.38001096 0.5446318 0.29095364 0.46305564
00000000: 7b43 203f 2f76 a53e e5a2 08bf 4452 a13e
00000010: af5d 103f 3f77 c63e 739c 9e3e c92c af3e
00000020: adc9 c33e 0f43 b2bd e8cd 1a3f cc90 c23e
00000030: fd6c 0b3f e0f7 943e a115 ed3e

weight f4 [10, 15]
0.5090903 0.47394782 0.60635823 0.41648895 0.8109692 0.65416235 0.6101887 0.5119421
0.78233737 0.626516 0.5085752 0.60191256 0.6180054 0.8631952 0.49188247 0.7774514
0.55594367 -0.019634273 0.5822346 0.71360445 0.6380641 0.5994237 0.42386344 0.59153664
0.041158285 0.4471781 0.518752 0.7394891 0.66896933 0.5187986 0.7611119 0.62225693
0.2599837 0.5448941 0.526033 0.5198947 0.55499655 0.4853352 0.5647069 0.67038363
0.57395107 0.56163275 0.6780096 0.3452788 0.7698453 0.5255411 0.7618517 0.7314036
0.73409176 0.71920913 0.4458599 0.63594145 0.70017755 0.5748058 0.3805161 0.7771661
0.44794556 0.62514603 0.39793354 0.39007914 0.58116287 0.7471413 0.25194308 0.69314414
0.38250276 0.6003114 0.3529073 0.529001 0.7469016 0.2864489 0.3836247 0.7594039
0.6116437 0.49115202 0.79969764 0.7268098 0.5169241 0.12643507 0.59365875 0.6603829
0.7269438 0.7720608 0.4272477 0.4649877 0.54079235 0.46993673 0.53616595 0.6422313
0.74876153 0.49827188 -0.7210632 -0.3200185 -0.49076077 -0.70418173 -0.71215844 -0.33862448
-0.7550618 -0.749185 -0.5594558 -0.60096216 -0.39163393 -0.51442623 -0.44622236 -0.33684093
-0.5848349 0.70000386 0.800638 0.19810927 0.72631985 0.6557239 0.72578895 0.37727237
0.8656411 0.7050382 -0.11350691 0.623547 0.46488577 0.4053418 0.5161722 0.44926676
0.75333285 0.70963323 0.36098802 0.52442497 0.74636996 0.68989253 0.6307143 0.5820679
0.3958754 0.29889345 0.68241405 0.43385312 0.7992774 0.80301005 0.32530826 0.5978749
0.71195257 0.3798835 0.63311267 0.6899136 0.81948334 0.5336419 0.6220274 0.54823506
0.4696469 0.6882826 0.44044068 0.6861221 0.61206603 0.6793699
00000000: be53 023f 4aa9 f23e 4b3a 1b3f 0a3e d53e
00000010: ad9b 4f3f 2f77 273f 5435 1c3f a30e 033f
00000020: 4347 483f 5a63 203f fc31 023f f116 1a3f
00000030: 9a35 1e3f 5cfa 5c3f 05d8 fb3e 0e07 473f
00000040: 5352 0e3f 0ed8 a0bc 540d 153f c8ae 363f
00000050: 2b58 233f d573 193f a104 d93e f26e 173f
00000060: 9795 283d 87f4 e43e eecc 043f 284f 3d3f
00000070: 9341 2b3f fccf 043f 3bd8 423f 3b4c 1f3f
00000080: 951c 853e 2e7e 0b3f 19aa 063f d217 053f
00000090: 4114 0e3f db7d f83e a290 103f 439e 2b3f
000000a0: 75ee 123f 2ac7 0f3f 0a92 2d3f 62c8 b03e
000000b0: 9514 453f dd89 063f b708 433f 443d 3b3f
000000c0: 70ed 3b3f 171e 383f c047 e43e 0fcd 223f
000000d0: d63e 333f 7926 133f 02d3 c23e 5cf4 463f
000000e0: 1f59 e53e 9209 203f f2bd cb3e 74b8 c73e
000000f0: 17c7 143f a744 3f3f affe 803e e571 313f
00000100: 67d7 c33e 02ae 193f 44b0 b43e 9c6c 073f
00000110: f134 3f3f 6ea9 923e 756a c43e 4b68 423f
00000120: ae94 1c3f 4778 fb3e fcb8 4c3f 3510 3a3f
00000130: 2355 043f 3278 013e 05fa 173f db0e 293f
00000140: fd18 3a3f c7a5 453f 36c0 da3e de12 ee3e
00000150: 5e71 0a3f 8c9b f03e 2c42 093f 4569 243f
00000160: d6ae 3f3f 7e1d ff3e 9997 38bf 77d9 a3be
00000170: ff44 fbbe 4145 34bf 0450 36bf 3060 adbe
00000180: bb4b 41bf 97ca 3fbf 7f38 0fbf a8d8 19bf
00000190: 3e84 c8be 70b1 03bf 4277 e4be 6a76 acbe
000001a0: bdb7 15bf 7433 333f 9df6 4c3f 28dd 4a3e
000001b0: 19f0 393f 86dd 273f 4ecd 393f d829 c13e
000001c0: a89a 5d3f 627d 343f 5076 e8bd c7a0 1f3f
000001d0: 8205 ee3e f688 cf3e dc23 043f 4b06 e63e
000001e0: 6cda 403f 86aa 353f 6cd3 b83e b740 063f
000001f0: 1a12 3f3f cc9c 303f 7e76 213f 6702 153f
00000200: 2eb0 ca3e 9008 993e b0b2 2e3f ff21 de3e
00000210: 729d 4c3f 1192 4d3f ce8e a63e 540e 193f
00000220: 8642 363f 1780 c23e ac13 223f 2d9e 303f
00000230: a9c9 513f c19c 083f 303d 1f3f 2259 0c3f
00000240: 8f75 f03e 4a33 303f 7181 e13e b3a5 2f3f
00000250: 5cb0 1c3f 30eb 2d3f

bias f4 [10]
0.712611 0.68555236 0.7699708 0.652607 0.7516061 0.56214416 -0.4247068 0.54033244
0.41991076 0.3777139
00000000: ad6d 363f 5c80 2f3f ce1c 453f 4111 273f
00000010: 4269 403f aee8 0f3f 2b73 d9be 3a53 0a3f
00000020: 8bfe d63e b763 c13e

weight f4 [10, 10]
1.9101998 1.9242207 1.2794383 1.462524 1.6210021 1.314531 0.40752047 1.5700858
1.353073 1.6746136 1.5622063 1.829649 1.4020597 1.7396935 1.6791363 1.6915326
0.43290746 1.5084862 1.7563525 1.4872317 -2.6087651 -1.8567379 -1.9172575 -2.171435
-2.171372 -2.165271 -0.47226813 -2.6288831 -2.1750445 -2.0120277 -2.0821893 -2.3158038
-2.0708466 -2.3287249 -2.0983224 -1.8040572 -0.1383851 -2.3588727 -2.1944118 -2.0118916
-2.4147108 -2.2352288 -2.2182798 -2.0517573 -1.9211789 -2.242657 -0.5350624 -2.135436
-1.7893778 -2.135609 -2.6308255 -2.3223734 -1.938692 -1.7376859 -2.0850835 -2.0116017
-0.31607997 -2.7210517 -1.9737202 -1.8613583 1.827566 1.6835359 1.36501 1.3104893
1.6792353 1.996702 0.21828038 1.7527775 1.7579995 1.3105806 1.6454145 1.4159665
1.8141934 1.4632792 1.5041361 1.7099997 0.327601 1.6510665 1.3998364 1.8092053
1.8471645 1.415059 1.1181045 1.7073135 1.3837157 1.5656742 0.49533504 1.9258668
1.6077874 1.7273482 -2.664295 -2.0820398 -1.9182417 -2.0556686 -2.0918136 -1.9220083
-0.75720674 -2.568171 -2.1081934 -1.8981686
00000000: 6d81 f43f dd4c f63f a2c4 a33f fd33 bb3f
00000010: ff7c cf3f 8d42 a83f 86a6 d03e 92f8 c83f
00000020: 7f31 ad3f bd59 d63f 60f6 c73f f031 ea3f
00000030: b176 b33f 47ae de3f f0ed d63f 2484 d83f
00000040: 0ca6 dd3e 1316 c13f 29d0 e03f 9c5d be3f
00000050: 02f6 26c0 96a9 edbf b268 f5bf cbf8 0ac0
00000060: c2f7 0ac0 cd93 0ac0 21cd f1be 9f3f 28c0
00000070: ee33 0bc0 10c5 00c0 9742 05c0 2136 14c0
00000080: c088 04c0 d409 15c0 ea4a 06c0 59eb e6bf
00000090: d3b4 0dbe c5f7 16c0 3e71 0cc0 d5c2 00c0
000000a0: 9f8a 1ac0 fd0d 0fc0 4cf8 0dc0 fe4f 03c0
000000b0: 31e9 f5bf b187 0fc0 d9f9 08bf fcaa 08c0
000000c0: 550a e5bf d1ad 08c0 725f 28c0 c4a1 14c0
000000d0: 0f27 f8bf 7e6c debf 0272 05c0 15be 00c0
000000e0: 3cd5 a1be b625 2ec0 dda2 fcbf fd40 eebf
000000f0: afed e93f 1b7e d73f a6b8 ae3f 1dbe a73f
00000100: 2ff1 d63f ee93 ff3f e484 5f3e 035b e03f
00000110: 2106 e13f 1bc1 a73f f19c d23f 643e b53f
00000120: 7d37 e83f bc4c bb3f 8887 c03f 45e1 da3f
00000130: 51bb a73e 2656 d33f d72d b33f 0a94 e73f
00000140: e36f ec3f a720 b53f 0c1e 8f3f 4089 da3f
00000150: 991d b13f 0368 c83f 8e9c fd3e ce82 f63f
00000160: facb cd3f bf19 dd3f cf83 2ac0 2440 05c0
00000170: f288 f5bf 1390 03c0 46e0 05c0 5e04 f6bf
00000180: 4dd8 41bf ea5c 24c0 a4ec 06c0 30f7 f2bf

bias f4 [10]
1.3242086 1.2991488 -1.4858282 -1.7457123 -1.8547668 -1.7470862 1.7025833 1.2018747
1.0207316 -1.8300338
00000000: ab7f a93f 824a a63f 9e2f bebf 8073 dfbf
00000010: 0069 edbf 85a0 dfbf 40ee d93f 08d7 993f
00000020: 55a7 823f 8c3e eabf

weight f4 [1, 10]
0.3874893 0.62701845 0.07274572 0.009186213 0.0060743657 0.0054473253 0.50858194 0.64623165
0.45660985 0.032036018
00000000: ff64 c63e 4884 203f b5fb 943d c581 163c
00000010: 790b c73b 7a7f b23b 6d32 023f 706f 253f
00000020: c4c8 e93e 3338 033d
