Model1-dataset4096-epoch5000-lr0.005.pth (torch, 13110 bytes, 13 tensors)

weight f4 [15, 4]
00000000: 14ff f0bd 96bf a0be 6187 02c1 3051 bc3f
00000010: 97c6 86bf 45ef abbe f92e a9c0 1557 82c0
00000020: 0361 b6be cadb b7bf 2e7c afc0 c88e 92c0
00000030: a410 9d3f 7101 f2be 9878 a840 7fe6 2940
00000040: bd68 0340 93a2 10be 5e48 b83e e72b 5bc0
00000050: cdb6 693f 28dc 99be ee65 0c40 9576 9440
00000060: b88a 2abe d5e9 26bf a763 1dbd 5eb0 0cc1
00000070: 3764 343e abf5 12bf 48c1 72bb ec54 e5c0
00000080: 13a1 c4bf e9ba db3d 7f83 1040 b5bc 1940
00000090: db2f 67bf c00e 9a3e 6c5c 13bf 0c62 3041
000000a0: 784f c03f c63e fdbe 3c0f f53e e1e3 4c3e
000000b0: cb2d 913f 91fb 3ebf be4d 9b3f 3800 ef3f
000000c0: a0d3 89be a479 eebf 32aa e43e 2415 f93f
000000d0: aefa bbbd 2c14 93bf 54bf ef3e dded a640
000000e0: b624 0dbf 6430 e7bf 5077 0a3d bd99 16bf
-0.11767402 -0.31396168 -8.1580515 1.4712276 -1.0529355 -0.33580986 -5.286984 -4.07313
-0.3562089 -1.4363949 -5.4839087 -4.5799294 1.2270703 -0.47266725 5.264721 2.6546934
2.0532677 -0.14124517 0.35992712 -3.4245546 0.91294557 -0.30050778 2.1937213 4.6394753
-0.1665448 -0.6520055 -0.038425114 -8.793058 0.17616354 -0.5740611 -0.0037041474 -7.1666164
-1.5361656 0.1072901 2.258026 2.4021428 -0.90307397 0.30089378 -0.575629 11.023937
1.5024252 -0.49461955 0.47863185 0.20008804 1.13421 -0.7460261 1.21331 1.8671942
-0.2691927 -1.8630872 0.446611 1.9459577 -0.09178673 -1.1490531 0.4682566 5.216536
-0.5513414 -1.8061643 0.03380519 -0.58828336

bias f4 [15]
00000000: 8b23 cec0 aae7 8dc0 a8be 81c0 82d7 8040
00000010: f9a3 9dbe bdee 8440 2dff 86c0 452d a53f
00000020: 39f8 1040 4f25 b4c0 31c1 b640 5f40 ca40
00000030: b4d9 973f b9f6 ad40 7e2f febf
-6.4418387 -4.4345293 -4.0545235 4.026307 -0.30789164 4.154143 -4.2186494 1.290444
2.2651503 -5.6295543 5.711083 6.320358 1.1863313 5.4363675 -1.9858243

weight f4 [15, 15]
00000000: 6d06 0bc0 a82a 153d 0c78 6ec0 f8b6 88bf
00000010: c716 18bf 423f 2a3c db3d f33e faa4 813f
00000020: 5167 78bf b88e a2c0 ac21 8bbf 57ff 90bf
00000030: f6c4 263e 26b1 73bf 62bb cabf 1ef4 b0be
00000040: 61e5 5140 99d4 aa40 2d24 38c0 d498 17c1
00000050: 7cc3 d7c0 fc3e 403f 9c03 173e 0e10 4cc0
00000060: 8d3e 3ec1 a0e6 03c1 7154 eac0 f6d9 4bbd
00000070: 42a8 dbc0 a991 3a40 dc50 c53e 7210 803f
00000080: bea9 2340 194f c8bf 384e 4dc0 4505 0ec0
00000090: 2080 ed3f 85bb b13f 189b 18bf 7465 52c1
000000a0: 9878 fec0 e5a2 b9c0 c1f2 d2c0 20b5 d7c0
000000b0: fc82 b2c0 b80b 293f 0d70 5d40 a9e2 bd40
000000c0: 1e26 1dc0 ed91 27c1 8419 ddc0 9c2d 9f3f
000000d0: d661 023f 31a4 16c0 39e8 32c1 9333 0ac1
000000e0: 576d eec0 7d38 2b3e b2ad c8c0 3ee2 3f40
000000f0: d24f f93e 42c1 8440 8880 ce40 24c4 5ec0
00000100: 2cda 03c1 1579 e5c0 e693 963f c8b1 423d
00000110: 4600 2ac0 6e1a 39c1 470e f8c0 100a dbc0
00000120: 5f46 1b40 d8de d5c0 e7f7 c640 5067 623f
00000130: dadf 4340 4fff b540 192e 0fc0 a9ff 2ac1
00000140: 28d5 c9c0 7ea6 af3f c7fb 0e3f 2bee 0ec0
00000150: 4914 39c1 876c 12c1 0b2c e6c0 3653 7cbf
00000160: 00f3 c4c0 8935 ca3f 40ba f2be 4b50 f53f
00000170: 0e60 7840 4691 3fc0 b1c5 09c1 20e6 acc0
00000180: aeba 3b3f c07a a0be 39c1 4ec0 dbd2 42c1
00000190: bec2 03c1 5654 d5c0 3df0 10c0 72da e9c0
000001a0: 874a b6be 3dfe 5abf 9ae9 b33f 14af 1a40
000001b0: 6afb c7bf f289 ffc0 7ee4 69c0 fc2f a03f
000001c0: 59f6 823e e3b9 49c0 2d75 5ec1 ad58 11c1
000001d0: 5638 b4c0 e310 c2bf cb43 d4c0 a456 a2bf
000001e0: d405 1e40 618b 0240 fc4d cbc0 9575 dd3f
000001f0: da0d 2dc0 bbf8 69c0 dbba a1bf 5c3f ca3f
00000200: 0716 66c0 14d6 a0c1 1061 193f 0427 193f
00000210: 2272 a1c0 812d 2d3f e14e 523f 295c 803f
00000220: c870 4c40 54e0 a540 e94a 8cbf 5a4d 41c1
00000230: 53f9 b0c0 e56c c73f 39d5 773f e7ce 08c0
00000240: 8ced 45c1 ae58 22c1 2c45 eac0 5cd7 c4bf
00000250: fbe1 a3c0 e7f7 ae3f 094b d93d 371b 913f
00000260: 1eb2 6240 3859 5cc0 9671 1b3f a280 3ec0
00000270: 7b52 8d3f de17 a0bc 26cf f4bf f9c7 48c1
00000280: c50c ddc0 c543 bac0 250e bdc0 8336 00c1
00000290: 9813 95c0 3001 16bf 3e5f 5140 0093 9740
000002a0: a3de 32c0 8dbb 16c1 bbd7 cec0 e176 263f
000002b0: 62e4 82bd eb39 54c0 3389 3bc1 b310 08c1
000002c0: b81c e3c0 502c 763d 73a6 dec0 6f07 6840
000002d0: 8caa ebbe de44 1240 3f1b 8d40 4604 18c0
000002e0: e2a6 1dc1 2555 adc0 b34c 323f 7032 373d
000002f0: 154f 50c0 bb1f 4bc1 942b 0cc1 1413 e1c0
00000300: 7f61 403d 2699 d9c0 472a f33f 23f3 f4bb
00000310: 0f42 9b3f 7d0b 6a40 ae37 4dbf 160f 32c1
00000320: 2107 73c0 2dc4 ba3f 87ec 553f 2dd2 c8bf
00000330: 8d63 4ec1 efe3 1cc1 291e c8c0 2c72 e4bf
00000340: 95f8 adc0 7f65 0cc0 9635 0abf 1fc0 b03f
00000350: f0c8 5740 e368 11c0 430b 0fc1 1bcd 8cc0
00000360: f8f7 2d3f 8a30 2e3d 8aff 28c0 6f7b 54c1
00000370: edc3 0ac1 4954 cbc0 036c 42c0 235e e8c0
00000380: e59c 1bc0
-2.1722672 0.036417633 -3.726077 -1.0680838 -0.59409755 0.010391058 0.4750813 1.0128472
-0.9703265 -5.0799217 -1.0869651 -1.1327924 0.16286072 -0.9519218 -1.5838435 -0.34561247
3.2796252 5.338452 -2.877208 -9.474812 -6.742613 0.75096107 0.1474747 -3.18848
-11.890271 -8.243805 -7.322808 -0.04976841 -6.8642893 2.9151404 0.38538253 1.0005019
2.5572352 -1.5649139 -3.207899 -2.2190716 1.8554726 1.3885351 -0.59611654 -13.149769
-7.952221 -5.8011346 -6.592133 -6.74086 -5.5784893 0.66033506 3.459964 5.9339185
-2.4554515 -10.473126 -6.9093647 1.2435794 0.50930536 -2.3537714 -11.181695 -8.637591
-7.450847 0.16720767 -6.271203 2.9981837 0.4869371 4.148591 6.45319 -3.4807215
-8.240765 -7.1710305 1.1763885 0.047532827 -2.6562667 -11.568953 -7.751743 -6.8449783
2.42617 -6.6834526 6.2177615 0.8843889 3.0605378 5.6874156 -2.2371886 -10.687417
-6.30727 1.3722684 0.5585293 -2.2332866 -11.567452 -9.151496 -7.1928763 -0.9856447
-6.154663 1.5797588 -0.47407722 1.9165128 3.8808627 -2.9932418 -8.6107645 -5.4030914
0.73331726 -0.3134365 -3.2305434 -12.176478 -8.2350445 -6.666545 -2.264663 -7.3079157
-0.35603735 -0.85544187 1.4055665 2.416936 -1.56236 -7.985589 -3.654571 1.2514644
0.25578573 -3.1519706 -13.903607 -9.084149 -5.631877 -1.5161403 -6.6332755 -1.2682691
2.4691057 2.039757 -6.3532696 1.7301508 -2.7039704 -3.6558063 -1.2635149 1.5800586
-3.5950944 -20.10453 0.5991373 0.5982516 -5.045182 0.6764756 0.8215161 1.0028125
3.1943836 5.183634 -1.0960361 -12.081385 -5.530435 1.5580107 0.96809727 -2.1376283
-12.370495 -10.14665 -7.320944 -1.5378222 -5.1213355 1.3669404 0.10610015 1.133643
3.5421214 -3.4429455 0.60720193 -2.9766011 1.1040796 -0.01954263 -1.9125717 -12.548821
-6.907809 -5.8207726 -5.9079766 -8.013309 -4.658642 -0.5859556 3.2714381 4.7366943
-2.7948387 -9.420789 -6.4638343 0.65025145 -0.06391217 -3.316035 -11.720996 -8.504077
-7.0972557 0.060100853 -6.9578185 3.6254537 -0.46028554 2.2854533 4.409576 -2.3752608
-9.853243 -5.4166436 0.69648284 0.044725835 -3.2548268 -12.695247 -8.760639 -7.033579
0.04696798 -6.799945 1.8997277 -0.007475273 1.2129534 3.6569512 -0.80163085 -11.128683
-3.79731 1.4591118 0.8356404 -1.568914 -12.899304 -9.805648 -6.2536817 -1.7847342
-5.4365945 -2.1936948 -0.53988016 1.3808631 3.3716393 -2.2720268 -8.940249 -4.4000373
0.67956495 0.04252676 -2.6405969 -13.280135 -8.672833 -6.3540387 -3.0378425 -7.2614913
-2.431451

bias f4 [15]
00000000: e6dc cfbe 1ef4 b3bf 6ec9 53bf 33d3 91bf
00000010: 21cb 8ebf cccc 65bf 8549 00c0 a765 bcbf
00000020: 2451 d8bf 8abe 1abf c13c dcbf bc6e d1bf
00000030: 4171 b9bf 5071 1fbf 3d27 e3bf
-0.4059822 -1.4058874 -0.8272923 -1.1392578 -1.115574 -0.8976562 -2.0044873 -1.4718522
-1.6899762 -0.6044699 -1.7206041 -1.6361918 -1.4487687 -0.62282276 -1.774635

weight f4 [15, 15]
00000000: 2729 e2bf 68ed c2c0 9f7e 01c1 6cff d2c0
00000010: 2ecb 94c0 d192 ddc0 1ac2 d3c0 4ea1 c8c0
00000020: 3209 873f 3f52 02c1 6d77 dbc0 543d bac0
00000030: cf04 d3c0 9252 03c1 7a1c e1c0 5ef6 afc0
00000040: 5346 e63f 63a5 fc3e f0ae 0440 45a8 0f40
00000050: fb5b 0a40 2e54 bb3f e292 183f c2a2 e5c0
00000060: f2f5 1d40 b853 bf3f 4554 c53f f509 d63f
00000070: 14e4 253f a804 973f d78e bac0 30d1 843e
00000080: ee5e 563e 78eb 823f 2f4b 4f3f 3cb8 263f
00000090: 5b9e 3c3e 109b 9cbe c59b e8c0 af3a eb3f
000000a0: 3018 79be 61f9 0a3f a21a c83d 6bf3 aa3e
000000b0: 0d3f 93be 5b30 4cc0 3c7b 2140 2f4f f33f
000000c0: 65da 4040 705d 4440 ee27 5040 6580 0b40
000000d0: 2213 c43f 4c63 efc0 ba0f 4640 1ef9 f43f
000000e0: 18f3 0940 4333 1840 569b 0740 ae28 b83f
000000f0: 4c66 f8bf 8cd0 2cc0 16b9 37c0 6f97 44c0
00000100: 9430 23c0 1783 43c0 ddc6 1bc0 d13d bcbf
00000110: 99d6 9cbf 573d 6dc0 cac4 2cc0 f50b eebf
00000120: d2f6 03c0 09e2 22c0 196f 00c0 c004 ad3f
00000130: eda2 ca3f 1d72 6940 ac31 2a40 5a70 6e3f
00000140: 1ee0 5740 cc2a f43f 752a 3240 479b 673f
00000150: 492e 6a40 c370 b33f 26e9 f23f a240 2440
00000160: 502b 7d40 9937 2d40 b586 74bf 6dda 4b40
00000170: 2a0f 4040 95d0 8040 07e4 7040 3556 8940
00000180: 108b 3140 5db8 ee3f d932 5ec0 fa87 8b40
00000190: 632a 2640 c0c7 2f40 d1a7 3940 7622 2240
000001a0: 8631 1740 836a 93bd 11dd 6a40 2603 3940
000001b0: c61f 7b40 c173 8040 884c 7f40 dbba 3740
000001c0: b35d 1140 cf91 3dc0 6caa 9040 9cb6 5340
000001d0: 316a 4a40 a539 4940 bb2b 4240 a95f 2f40
000001e0: 4b58 e3bf 42d3 1040 6de4 4c40 59ed 3e40
000001f0: 9825 3040 55bc 4140 905e 2140 23c7 1840
00000200: 575f 84c0 5840 7740 2ffa 2d40 f459 2840
00000210: 0eaf 1240 f516 3540 4f10 1540 435b 24c0
00000220: 0215 2f40 19a7 ac3f 3e4a 6a40 f519 5040
00000230: 3ede 6040 c546 0140 6ee6 9e3f be8a 92c0
00000240: b3a0 6740 3954 e03f 2ec5 2940 d421 e13f
00000250: 1858 f03f 439e b63f 9df4 d4be 9ee5 6a40
00000260: aa42 4f40 778e 8c40 1889 7640 bf72 8c40
00000270: 3826 3640 8c55 0b40 4374 3cc0 7de3 9b40
00000280: d0e6 4540 e8e2 5040 ef65 2f40 4c7a 4240
00000290: dfe2 1340 f6d3 49c0 5c9e f93f 2157 0740
000002a0: 16e5 2140 bf26 2b40 0d73 3a40 a9fd b13f
000002b0: 10df c53f a58b a6c0 f0b6 5540 1bf2 e73f
000002c0: 9c24 e63f 0ab2 fc3f f209 1040 5282 bf3f
000002d0: 0601 72c1 b827 adc1 7bba b4c1 d68a b6c1
000002e0: 8640 aac1 245b bcc1 52b5 b3c1 1876 bbc1
000002f0: 5ea0 38c1 dc75 bbc1 9126 b4c1 3a94 a7c1
00000300: bb5c b4c1 2949 c3c1 7e63 b4c1 91c1 e0c0
00000310: c1d0 4dbe 2bc8 77c0 376b 80bf 6f40 75be
00000320: 9d7a c4bf 64fb 78be 025b 17bf 5718 d2c0
00000330: 3a25 03c0 e227 bdbf c3e6 44be 56eb 0cbe
00000340: d17a fabf d7d5 83bf 6fbb 60be bbe1 4cbf
00000350: 8227 e03e 88bb 6fbe d4e0 f5be 66f2 04bf
00000360: 181c 63bf a580 cebf 0196 0fc0 d413 c1be
00000370: 2c6a 53bf fd7c 9ebf fbe7 b6bf df51 80bf
00000380: 9432 cbbf
-1.7668809 -6.0914803 -8.093413 -6.5936794 -4.649802 -6.924172 -6.617444 -6.2696905
1.0549681 -8.14508 -6.8583283 -5.8199863 -6.594337 -8.207659 -7.034726 -5.498824
1.7990211 0.4934493 2.0731773 2.2446454 2.161864 1.4635065 0.59599125 -7.176118
2.4681363 1.4947424 1.5416342 1.6721789 0.64801145 1.1798296 -5.8299365 0.25940847
0.2093465 1.0228109 0.80974096 0.6512487 0.18419783 -0.30587053 -7.269015 1.8377284
-0.24325633 0.5428677 0.09770705 0.33388838 -0.2875904 -3.1904514 2.5231466 1.900854
3.0133297 3.068203 3.252437 2.1797116 1.5318339 -7.480871 3.0947099 1.9138525
2.1554623 2.3781288 2.118856 1.4387414 -1.9406219 -2.7002287 -2.8706717 -3.0717428
-2.54984 -3.054876 -2.4340127 -1.4706365 -1.225299 -3.706869 -2.699511 -1.8597399
-2.0619397 -2.545046 -2.0067809 1.3517075 1.5830971 3.64759 2.6592817 0.93140185
3.373054 1.907556 2.7838414 0.9047131 3.659075 1.4018787 1.8977401 2.5664449
3.9557686 2.7065184 -0.95518047 3.1852067 3.0009255 4.0254617 3.7639177 4.2917733
2.7741127 1.8650013 -3.4718535 4.3603487 2.596337 2.7465668 2.9008677 2.5333533
2.3623977 -0.0719805 3.6697428 2.8908172 3.9238143 4.01413 3.989046 2.8707798
2.271344 -2.9620245 4.5208035 3.3080206 3.1627314 3.1441433 3.033919 2.7402136
-1.776132 2.2628942 3.201442 2.9832366 2.7522945 3.0271199 2.5213966 2.3871543
-4.136638 3.8633022 2.718395 2.6304903 2.2919345 2.8295262 2.3291204 -2.5680702
2.7356572 1.3488494 3.6607814 3.2515843 3.5135646 2.0199444 1.2414072 -4.5794363
3.6191833 1.7525703 2.65266 1.7588449 1.8776884 1.4267048 -0.41592875 3.6702647
3.2384439 4.3923907 3.8521175 4.389007 2.8460827 2.1770964 -2.944596 4.8715196
3.0922127 3.2638493 2.7405965 3.0387144 2.310722 -3.153562 1.9501452 2.114693
2.5296073 2.6742399 2.9132721 1.3905536 1.5458698 -5.2045465 3.3392906 1.812076
1.7979922 1.9741833 2.250607 1.4961646 -15.12525 -21.644394 -22.591055 -22.817791
-21.281506 -23.544502 -22.463535 -23.432663 -11.539152 -23.432549 -22.518831 -20.947376
-22.545279 -24.410723 -22.54858 -7.0236287 -0.20099165 -3.8715923 -1.0032719 -0.2395036
-1.5349919 -0.24314648 -0.5912324 -6.565471 -2.0491471 -1.4777796 -0.19228654 -0.13761649
-1.956873 -1.0299634 -0.219465 -0.8003194 0.43780142 -0.23411381 -0.48023093 -0.5193237
-0.8871474 -1.6133009 -2.2435305 -0.3771044 -0.8258388 -1.2381893 -1.4289545 -1.0024985
-1.587481

bias f4 [15]
00000000: 68d9 c8be 63b1 92c1 3c6b 98c1 e515 76c1
00000010: 2f8f 4d40 26fe ca3f 2564 ffc0 7441 e5c0
00000020: 341f 1fc1 f62e 28c1 e27b e9c0 4f1b 40c1
00000030: b6a5 983e 5f26 58c1 5739 9fc1
-0.39228368 -18.336615 -19.05236 -15.380345 3.2118642 1.585881 -7.9809747 -7.16424
-9.945118 -10.511465 -7.2963724 -12.006667 0.29813927 -13.509368 -19.902998

weight f4 [15, 15]
00000000: 5d67 08c1 7987 633e e66d ba3d 20e9 fb3f
00000010: b2ec c6c0 34d9 93bf 393b 5140 885d 7540
00000020: f767 2240 241c 4240 c74f 6e40 06fd e33f
00000030: 8e59 0bc1 fbac 9fc0 643a 90bf 8e9a 6dbf
00000040: 98e1 673f d8d7 8c3f dcba 1e3f 5df7 68be
00000050: 4537 3cc0 c633 2dbe 7edd 0cbf 75f1 f63e
00000060: 3f2d 9b3e 5c63 6cbe 0955 333f c8fd 2f41
00000070: 9714 073f a6da 033e bee8 0ac1 48f6 92be
00000080: 24a5 75bf a707 3b3f fa3e bfc0 c61d e2be
00000090: 308f f13f 7c53 0c40 a05e 983f f86b 8b3f
000000a0: 5458 0e40 0196 393f 47ef 9ac0 cf8f 86c0
000000b0: 912c 19bf f3ee ab40 fb3f 44c0 7407 89bf
000000c0: a67a 51c0 f725 ff40 db81 0840 406a 12c0
000000d0: 7e29 17c0 d0f2 edbf 5598 4dc0 7335 09c0
000000e0: 06bb 25c0 2fb4 0fc1 ebc7 103f bdbc ed3e
000000f0: a38f 15c1 55fe e43e f46d 023d 503a d13f
00000100: 248c cec0 c551 94bf 507b 2b40 2417 2d40
00000110: 5839 e23f 87d6 e33f 8519 2e40 3d71 a73f
00000120: b025 5ac0 5b0c 90c0 71e5 30bf 82c6 0dc1
00000130: 58de a0be cc2e e0be 2ff2 4a3f fc9e c3c0
00000140: e835 17bf 59d5 c73f 1863 1340 fdcf a13f
00000150: 273b c33f fecd 1540 86fa 653f a4f0 99c0
00000160: b428 8cc0 42d6 aabe f4da 12c1 f451 983e
00000170: 7cff f8bd 4382 993f bed7 cdc0 19d2 b9bf
00000180: 5fcf 3540 b7f1 3a40 bc14 df3f 8fa4 1240
00000190: 8882 3d40 8dfc b73f 9471 9fc0 e0e3 8cc0
000001a0: 2fb9 7dbf e6c3 5740 6ebe 803e 5b3a bd3f
000001b0: ac21 4e3f ffc9 8d40 ef0c 10bf 046d 3dbd
000001c0: 2d07 3bbe 6051 853e b93a e73d 886e 09be
000001d0: 56da a73e f47d ba41 ffc0 7c3f 494a 543e
000001e0: 8cfc 03c1 4a4b 6a3e 9614 5ebf d944 ae3f
000001f0: b731 cac0 60b6 0ebe 339e 3940 30d7 5040
00000200: 0b59 e63f aa58 0840 b0de 4840 5c64 f33f
00000210: 0515 07c1 3e51 97c0 9ffe 85bf 6e7e 10c1
00000220: d8fa 323e df00 10bf 4cc3 853f 2627 c5c0
00000230: 5d58 37bf d080 2240 f200 2040 0bae c73f
00000240: c4f0 fe3f c1e9 2c40 b37d a03f 915d 93c0
00000250: 7cb5 88c0 4326 e6be dda5 13c1 13f1 b83e
00000260: 8d42 503d 69a7 ca3f af52 c8c0 6280 8bbf
00000270: c6d4 1440 78dc 1440 be4b cf3f 265b da3f
00000280: afac 1540 25a2 953f afff 9bc0 41ab 95c0
00000290: e43c 60bf f8d0 cf3f 7d1d 54bf 4e43 6abf
000002a0: 2dcd 9ebf 30fd 3f40 211e 0dc0 300a 91bf
000002b0: 781c d9bf 93a4 b1bf 3128 1fbf e3b8 b0bf
000002c0: 1e51 93bf 6d74 1741 6f4d 063f 1947 98bf
000002d0: 449e 07c1 155b 533e e8ee 49be d0d5 cb3f
000002e0: ba49 c2c0 7009 a3bf 3f23 6440 4f3f 7740
000002f0: d6f9 2840 fe2d 4040 5a52 7c40 cb2d ea3f
00000300: affe 0dc1 9436 9dc0 116f 8abf 50cc 0ec1
00000310: b479 a2bd ddeb c4be f387 973f e2ff c3c0
00000320: 5429 1ebf e7b7 e43f 581f 1c40 1d09 8d3f
00000330: a92e aa3f 5b0b 1e40 a0c6 4c3f 604d 99c0
00000340: d642 8dc0 e72f a5be ab62 13c1 65b5 2f3e
00000350: 9632 a7be a8c3 c73f 8b64 cac0 f6e7 9abf
00000360: ec42 1640 305f 4440 d47f ea3f f617 ee3f
00000370: 6951 2a40 940d a13f d667 9dc0 70f1 8dc0
00000380: 6bf2 21bf
-8.525235 0.22219647 0.09102993 1.9680519 -6.2163935 -1.155066 3.2692397 3.8338337
2.5375955 3.0329676 3.7236192 1.7811592 -8.709364 -4.989866 -1.126782 -0.92813957
0.90578604 1.100337 0.62003875 -0.22750612 -2.9408734 -0.16914281 -0.5502547 0.48231092
0.30307958 -0.23084778 0.7005163 10.999458 0.5276579 0.12876377 -8.681822 -0.28703523
-0.9595511 0.7305855 -5.9764376 -0.4416334 1.8871822 2.1925955 1.1903877 1.0892324
2.2241411 0.7249451 -4.8417087 -4.2050548 -0.5983363 5.3729186 -3.066405 -1.07054
-3.2731109 7.9733844 2.1329257 -2.287735 -2.3619075 -1.8589725 -3.2124226 -2.1438873
-2.58954 -8.98149 0.5655505 0.46433058 -9.347568 0.4472529 0.03184314 1.634592
-6.454607 -1.1587454 2.6794014 2.7045374 1.767375 1.7799844 2.7203076 1.3081433
-3.4085503 -4.501508 -0.691001 -8.860964 -0.31419635 -0.43785703 0.7927579 -6.1131573
-0.5906663 1.5611984 2.3029232 1.2641598 1.5252427 2.3406978 0.89835393 -4.810625
-4.3799686 -0.3336659 -9.178455 0.29750025 -0.12158105 1.1992878 -6.4325857 -1.4517242
2.840782 2.921003 1.7428203 2.2912939 2.961092 1.4373947 -4.9826145 -4.402817
-0.9911069 3.3713317 0.25145286 1.4783434 0.8052013 4.4309077 -0.56269735 -0.046246544
-0.18264456 0.26038647 0.11290497 -0.1342107 0.32783765 23.3115 0.9873199 0.20731463
-8.249157 0.22880283 -0.8675016 1.3614761 -6.3185687 -0.13936758 2.9002807 3.263134
1.7995924 2.1304116 3.1385918 1.9015002 -8.442632 -4.7286673 -1.0468329 -9.030867
0.17478502 -0.5625133 1.0450225 -6.161029 -0.71619207 2.539112 2.5000577 1.5599989
1.9917226 2.7017672 1.253836 -4.6051717 -4.272154 -0.44951066 -9.227994 0.36121425
0.050844718 1.583234 -6.260093 -1.0898554 2.3254867 2.3259563 1.619499 1.7059066
2.3386648 1.1690108 -4.8749614 -4.677155 -0.8759291 1.6235647 -0.82857496 -0.9150895
-1.2406365 2.9998283 -2.204964 -1.1331234 -1.6961813 -1.3878349 -0.621707 -1.3806423
-1.150913 9.465924 0.52461904 -1.1896697 -8.476139 0.20640214 -0.19720042 1.5924625
-6.0715 -1.2737255 3.5646513 3.863239 2.6402488 3.0028071 3.9425263 1.8295225
-8.874679 -4.9129124 -1.0815145 -8.924881 -0.07933369 -0.384612 1.1838363 -6.1249857
-0.6178181 1.7868623 2.439413 1.1018406 1.329549 2.469443 0.7999058 -4.790695
-4.4144087 -0.3226311 -9.211589 0.1715904 -0.32655782 1.5606585 -6.3247733 -1.2102039
2.3478346 3.0683098 1.832026 1.8601062 2.661219 1.2582269 -4.9189253 -4.4357224
-0.63260525

bias f4 [15]
00000000: 2861 84bf 2a3e 6dc0 0d9c 9abe e6d7 553f
00000010: 39a2 88bf 249f 3cbf 740f d7bf fa5d 03c0
00000020: 71c3 a03e 891a 67bf 6805 b3bf f21d 21c0
00000030: 4c86 73bf 625f 1cbf e95b b3bf
-1.034215 -3.7069192 -0.30197182 0.8353256 -1.0674506 -0.7368033 -1.6801591 -2.0526109
0.3139911 -0.90274864 -1.3986025 -2.5174527 -0.95126796 -0.6108304 -1.4012424

weight f4 [10, 15]
00000000: 8ded 363f 13fc cf40 cd2a d23e 0358 ebbf
00000010: d372 043f ee95 e93e 900c 013f 388c 5f40
00000020: 5ced 623f 0d90 0c3f dc1e 003f ed54 a93f
00000030: 08a9 3c3f f24c 013f 8491 003f 31bd e2bd
00000040: 049e d0c0 4ca8 733f 9e07 54c0 bc0a 6b3e
00000050: 9fff 893f f64c 83be 6ffa c9c0 0ffc 0240
00000060: 7703 013f 202d 453e a1bf cbc0 1d0d f53c
00000070: 423d 3f3f 9aaf 2cbd 4369 08be 6e61 ddc0
00000080: 2e57 983f ed98 1dc0 5664 823e 5282 723f
00000090: 9b95 95be c0d0 d3c0 6a48 d33f cc8b 0e3f
000000a0: c0bd 223e 2106 bcc0 8fc2 e3be 19ea 1e3f
000000b0: 41cb a03e d611 6e3d 3c65 dbc0 b3a2 883f
000000c0: a388 24c0 2386 3b3e bbe6 823f 87f7 02be
000000d0: edc3 d2c0 d4a3 cb3f 4180 ab3e c064 2d3f
000000e0: 4f23 c2c0 6260 96bc 4660 3a3f 573c c33e
000000f0: f2b7 52bd b537 d6c0 080d 3d3f 0929 30c0
00000100: 2f32 0cbe f549 3a3f 29dc fcbe a2dd d7c0
00000110: f7d9 ee3f 7dc3 0e3f 46f1 c73e 9925 bac0
00000120: b236 babe 421c 773f d94e 163e 391e a53d
00000130: 129f d5c0 aa03 823f b76e 3fc0 58ca 163e
00000140: 32e0 793f 26c3 00be ed30 d1c0 556c da3f
00000150: 7c77 313f e589 f73e 9642 c3c0 e111 7c3c
00000160: da88 6e3f b915 c4bd c1f2 aa3d 09a0 f1c0
00000170: 47f5 843f 5969 72c0 c53a 5f3e 7474 923f
00000180: ba34 a93e feca cbc0 c6b0 ad3f 696a 613f
00000190: 381c 2b3f 4e6b c0c0 1120 ff3d cf0d 483f
000001a0: 1ada f93e 7cff 5840 f570 cbc0 d17c 8640
000001b0: 1f14 b0bf 9bd7 5340 95f0 7440 376d 4840
000001c0: 506c d7c0 6c5f 7c40 7837 6e40 7b87 5440
000001d0: da39 8fc0 4d28 6240 d8d8 6f40 046e 4e40
000001e0: 3e9b 923d 4cf1 e7c0 8094 573f 7426 74c0
000001f0: a069 493e d817 4d3f c1e2 04be 037f cfc0
00000200: a25a d63f 889f 1f3f 8978 2f3f 0362 bdc0
00000210: 8326 553e de61 6f3f e707 a93d 6b44 5a3e
00000220: f3b2 d4c0 34a8 d43f 8903 0bc0 f002 1b3f
00000230: 4f9c a83f dff1 a13e 55f1 cdc0 ed18 bd3f
00000240: 2433 403f fa44 413f 1724 b7c0 82f8 963d
00000250: e363 c03f 537d d23e
0.71456224 6.499521 0.4104828 -1.8386234 0.5173771 0.456222 0.50409794 3.4929333
0.8864343 0.54907304 0.5004709 1.3229042 0.7369542 0.50508034 0.5022204 -0.11071242
-6.519289 0.95178676 -3.312965 0.22953314 1.0781134 -0.25644654 -6.3118205 2.0466344
0.5039591 0.19255495 -6.367142 0.02991348 0.74702847 -0.042159654 -0.13321404 -6.9181433
1.1901605 -2.4624588 0.25467175 0.94730103 -0.29215702 -6.619232 1.6506474 0.55682063
0.15892696 -5.875748 -0.44484374 0.62075955 0.3140507 0.05812248 -6.8561077 1.0674652
-2.5708396 0.18312888 1.0226663 -0.12789737 -6.5864167 1.5909371 0.33496287 0.6773186
-6.06681 -0.018356506 0.7280315 0.38131973 -0.051444955 -6.6943 0.7384801 -2.7525046
-0.13691019 0.727691 -0.4938672 -6.745805 1.8660268 0.5576704 0.39051265 -5.8170896
-0.36369854 0.96527493 0.14678515 0.08062405 -6.675668 1.0157368 -2.9911325 0.14725626
0.9760772 -0.12574443 -6.5372224 1.706431 0.69322944 0.48347393 -6.101878 0.015385122
0.9317757 -0.09574456 0.08347083 -7.5507855 1.0387353 -3.78768 0.21799763 1.1441789
0.3304804 -6.3685293 1.3569572 0.88052994 0.66839933 -6.0130987 0.12457288 0.7814607
0.4879921 3.3905935 -6.3575387 4.2027364 -1.375614 3.3100345 3.827184 3.131666
-6.7319717 3.943324 3.7221355 3.320769 -4.475812 3.5337098 3.74761 3.2254648
0.07158516 -7.248205 0.8421097 -3.814847 0.19669199 0.8011451 -0.12977125 -6.4842544
1.6746409 0.623528 0.685433 -5.9182143 0.20815472 0.9350871 0.082534604 0.21315162
-6.6468444 1.6613832 -2.1720908 0.6055136 1.3172702 0.31629845 -6.4357095 1.4773232
0.75078034 0.75495875 -5.7231555 0.07371618 1.5030483 0.4111124

bias f4 [10]
00000000: 27a0 f5bf 1c33 c6bf c618 9fbf 947d b3bf
00000010: a4e6 bebf ccde d2bf 3dad d3bf 7bb4 dbbe
00000020: 1105 99bf 710e 62bf
-1.91895 -1.5484347 -1.2429435 -1.4022698 -1.4914136 -1.6474242 -1.6537243 -0.42911133
-1.1954671 -0.88303286

weight f4 [10, 10]
00000000: 641f c0c0 d02f 3c40 b0f1 2540 6513 0940
00000010: c760 1640 9758 1440 5d3a 6340 884c 7a40
00000020: e177 4140 94d9 2040 fe99 bdc0 cca1 a93f
00000030: c21f e13f 4b9c 973f 66ee c93f 5c82 bb3f
00000040: 6467 a73f 7221 7540 7e40 813f 3ea3 cb3f
00000050: dfdc bcc0 eb77 9b3f ebba d43f 133a b43f
00000060: c6f2 b23f 8c07 a33f a527 783f cba1 7140
00000070: 5bf4 a23f 4c0f e33f 79a7 bdc0 7983 ab3f
00000080: ef13 c23f a376 ac3f f0e6 ae3f de0b a43f
00000090: cb30 323f 1b35 7c40 94b0 813f 3dee be3f
000000a0: f538 bcc0 8ef0 943f e36a 963f d197 b03f
000000b0: 8e2a b13f ff71 7b3f 61a2 5d3f 3551 7940
000000c0: 2959 6a3f 6e89 673f 92ca b740 b142 94bf
000000d0: d588 89bf a269 b4bf 4fab ccbf cef2 86bf
000000e0: 449c 56bf 69f2 72c0 ea9c 86bf fbb8 a3bf
000000f0: 177b c2c0 1eac 8b40 c51a 5f40 60c6 7d40
00000100: 92de 7540 1cbe 8b40 59bb af40 73a4 9c40
00000110: c0d3 a340 25fa 5540 c2b0 b840 5fa5 b3bf
00000120: c69c 9ebf c797 b6bf d608 85bf 012e 9cbf
00000130: 02aa bcbe f0ee 78c0 26d8 8ebf ad34 a5bf
00000140: 096b bdc0 e6b0 953f 84a9 ac3f 826f dd3f
00000150: fe3d df3f 0942 b23f 923d ac3f ff61 7240
00000160: 2cc6 ce3f 9916 de3f 12e7 c1c0 28ba 2340
00000170: 8795 2a40 6e95 3340 ad5e 1b40 a958 2e40
00000180: f688 4440 a665 8640 890a 5a40 c997 1a40
-6.003832 2.9404182 2.5928764 2.1418087 2.3496568 2.317907 3.5504372 3.910921
3.0229418 2.51328 -5.925048 1.3252501 1.7587817 1.1844572 1.5775878 1.4649158
1.3078427 3.8301663 1.0097806 1.5909193 -5.901962 1.2145971 1.6619543 1.4080223
1.3980339 1.2736678 0.9693549 3.7755 1.2730821 1.7739043 -5.9266934 1.3399497
1.5162333 1.3473705 1.3664227 1.2816122 0.696057 3.9407413 1.0132012 1.4916455
-5.881953 1.1635911 1.1751369 1.3796331 1.3841112 0.9822082 0.86575896 3.8955815
0.915423 0.90444076 5.743478 -1.1582853 -1.0744883 -1.4094737 -1.5989779 -1.0542848
-0.8383219 -3.7960455 -1.0516636 -1.2790827 -6.0775256 4.3647604 3.486009 3.9652328
3.8417096 4.3669567 5.4916196 4.8950744 5.1195984 3.3433926 5.771577 -1.4034842
-1.2391593 -1.4265069 -1.0393322 -1.2201539 -0.36848456 -3.8895836 -1.1159713 -1.29067
-5.919316 1.169461 1.3489232 1.7299654 1.7440794 1.3926402 1.345629 3.7872312
1.6154227 1.7350646 -6.059457 2.558237 2.6653764 2.8059955 2.4276536 2.7241614
3.0708594 4.1999083 3.406893 2.4155142

bias f4 [10]
00000000: 74d4 143f 156f 913f f2b2 993f 51fe 8c3f
00000010: 7de9 a63f f451 cdbf 1472 c7be 6ce3 b4bf
00000020: 62ba 913f e167 b63e
0.5813668 1.1362025 1.2007735 1.1015111 1.3040005 -1.6040635 -0.38954222 -1.4131904
1.1385005 0.35626128

weight f4 [1, 10]
00000000: 7931 8242 fb7f 7a42 8cfc 7a42 0a96 7a42
00000010: b82e 7a42 7a94 a2c1 e9df 8742 8cc2 a6c1
00000020: f806 7c42 4cb2 8242
65.09663 62.62498 62.746628 62.646523 62.545624 -20.322498 67.937325 -20.844994
63.006805 65.348236
