Model1-dataset1024-epoch5000-lr0.005.pth (torch, 13110 bytes, 13 tensors)

weight f4 [15, 4]
-0.57301 0.24144374 -0.4114489 -2.2487712 -0.23170781 0.21403623 -0.31718132 5.278571
0.5898658 3.6543646 0.3917268 -8.938699 0.6907365 -0.3830936 2.9651954 0.6535656
1.0944359 -0.23740871 0.24556237 0.07065204 -0.48591942 1.4257925 -0.33301046 -8.754083
-1.1031471 -0.31937104 -0.93924546 -1.9764903 -0.49506414 0.8029606 0.62590384 -4.5279837
0.11151874 1.0131898 -0.36565095 -2.8793273 -0.3914476 0.5869407 -1.9709498 -1.1249446
-0.100863904 -0.5278058 -0.062864944 -6.0412807 -0.55508465 0.2810035 -2.3282876 -1.5457772
-0.6834019 0.6542266 -1.0978882 -1.2803252 0.6241978 1.0973164 -0.2980892 -3.9511278
0.5969482 2.1480758 0.42198923 -0.4553188
00000000: c9b0 12bf 073d 773e 6ea9 d2be deeb 0fc0
00000010: d044 6dbe 502c 5b3e 9765 a2be 0eea a840
00000020: 7201 173f 1ce1 6940 6a90 c83e e904 0fc1
00000030: 1bd4 303f d824 c4be c3c5 3d40 1350 273f
00000040: 7a16 8c3f 451b 73be b474 7b3e 04b2 903d
00000050: 6eca f8be 5e80 b63f 5980 aabe b910 0cc1
00000060: ed33 8dbf 9a84 a3be 6472 70bf a2fd fcbf
00000070: 0c79 fdbe d38e 4d3f 3c3b 203f 3ee5 90c0
00000080: f063 e43d 34b0 813f 9a36 bbbe e646 38c0
00000090: d26b c8be bf41 163f 1548 fcbf 2ffe 8fbf
000000a0: bc91 cebd 481e 07bf 56bf 80bd 2c52 c1c0
000000b0: 071a 0ebf b1df 8f3e aa02 15c0 07dc c5bf
000000c0: 6df3 2ebf 657b 273f 9a87 8cbf b2e1 a3bf
000000d0: 6dcb 1f3f dd74 8c3f 269f 98be 47df 7cc0
000000e0: 99d1 183f 137a 0940 f90e d83e 8c1f e9be

bias f4 [15]
-4.0162754 -1.3955114 2.106367 1.6730859 3.0058007 4.416591 -3.5044537 -4.123315
-3.8109891 -3.4241707 -1.4858797 -2.8282907 -4.070561 -2.3883903 -0.93065596
00000000: 5485 80c0 1ea0 b2bf b8ce 0640 ae27 d63f
00000010: 0a5f 4040 b754 8d40 f848 60c0 32f2 83c0
00000020: 3fe7 73c0 9d25 5bc0 4e31 bebf b702 35c0
00000030: 0942 82c0 63db 18c0 783f 6ebf

weight f4 [15, 15]
1.6875207 -6.5893593 -2.0567806 -1.0928733 -6.1670156 -1.554145 1.6384213 -1.5243961
1.680844 -0.35860994 1.3180557 0.34617123 1.302737 0.7791287 1.0135127 1.2177527
-5.985967 -1.8048568 -0.81834567 -4.8271236 -1.2047338 0.7372747 -1.5752853 1.736916
0.018916404 1.2546362 0.5265871 1.0405728 0.91213435 1.0140425 -0.9982877 7.041753
1.3683228 0.91324884 4.242834 0.9619993 -0.5101035 1.0427423 -1.1674899 -1.1775372
-0.7632618 -1.0292526 -1.6342926 -1.2840408 -0.8895404 -0.64967376 -2.1091704 -1.899935
-0.9832852 -0.8858046 -1.557498 -0.2428409 -1.6576421 0.522686 -0.2526734 -0.37909108
0.63648576 0.07233763 0.19326173 0.09881047 0.9546288 -5.957679 -1.6267436 -1.3411659
-6.887797 -1.5530514 1.5743065 -1.4803998 1.0877403 -0.11001834 0.81377465 0.43918177
0.78278565 0.5840034 0.51196724 0.9298891 -6.174367 -1.9501607 -1.1905879 -6.5627027
-1.5866985 1.3975234 -1.510459 0.99848926 -0.10584322 0.72654265 0.62047476 0.9159656
0.51274765 0.49062273 1.278435 -5.8553247 -1.7958648 -1.1595595 -5.8733125 -1.8302418
1.5074108 -1.6147072 1.4194362 0.16156398 1.3342384 0.33203644 1.1126515 0.6596835
0.82358503 1.0833069 -6.6292453 -1.9298309 -1.0348898 -5.114919 -1.2345525 0.7210698
-1.4831064 1.5810783 0.44969085 1.227009 0.2039586 1.353272 1.0165366 0.98203903
-1.3297602 3.9418745 0.91402566 0.2789042 2.91383 0.46594208 -0.48712322 0.47872654
-1.1389917 -1.4098886 -1.1758113 -1.3561418 -1.5421767 -1.3800304 -1.634401 -0.54066145
-4.1757774 -1.8950456 -1.1170311 -2.026085 -1.0582997 -0.2922726 -1.5747763 0.49004635
0.5597713 -0.0076232 1.1156583 0.45053646 0.69475484 0.40861663 1.3976059 4.8938594
1.881121 5.500359 3.4605157 5.2539425 1.6893284 1.9583372 1.4600829 1.142635
2.091427 1.346804 1.0882096 1.7528995 1.5103415 0.9039963 -6.119487 -2.022644
-1.0083221 -5.5390553 -1.1752814 0.8320169 -1.8728969 1.2214386 -0.025882943 1.0806057
0.43651512 1.0647843 0.77861106 0.5957604 1.1021311 -5.8548703 -1.9572893 -1.05853
-4.1138783 -1.4437964 1.0864197 -1.8093258 1.2241466 0.31347784 1.0311235 0.260092
0.7929122 0.9860422 1.1523863 0.99863744 -6.602329 -1.8022797 -1.4890264 -5.958986
-1.6806723 0.6928052 -1.738874 1.1034343 -0.04500069 0.81856275 0.47715512 0.85056484
0.6118153 0.3072571 -0.5644037 -3.2344415 -1.2306561 0.09768961 -0.4997141 -0.65965825
0.21579958 -0.81115097 -0.8264416 0.9502216 -0.23388769 1.1106462 1.0082523 0.4112104
0.6176441
00000000: ae00 d83f 08dc d2c0 4ba2 03c0 46e3 8bbf
00000010: 3158 c5c0 39ee c6bf cab7 d13f 691f c3bf
00000020: e525 d73f b99b b7be 0db6 a83f 5b3d b13e
00000030: 16c0 a63f fa74 473f c9ba 813f 52df 9b3f
00000040: 0b8d bfc0 8c05 e7bf 1a7f 51bf cc77 9ac0
00000050: b834 9abf 09be 3c3f f3a2 c9bf 4353 de3f
00000060: 93f6 9a3c eb97 a03f 6ace 063f 7d31 853f
00000070: a381 693f 25cc 813f c88f 7fbf 0a56 e140
00000080: 3425 af3f adca 693f 4cc5 8740 9645 763f
00000090: 2596 02bf 9478 853f 4f70 95bf 8ab9 96bf
000000a0: 2065 43bf 8dbe 83bf 8030 d1bf 735b a4bf
000000b0: ebb8 63bf 0551 26bf a6fc 06c0 1231 f3bf
000000c0: 94b8 7bbf 17c4 62bf 185c c7bf 49ab 78be
000000d0: 9e2d d4bf c0ce 053f 685e 81be 3a18 c2be
000000e0: bbf0 223f c025 943d 67e6 453e 255d ca3d
000000f0: 8e62 743f 4ea5 bec0 2239 d0bf 53ab abbf
00000100: d568 dcc0 63ca c6bf e082 c93f be7d bdbf
00000110: 133b 8b3f 4c51 e1bd 8953 503f 6fdc e03e
00000120: a464 483f 3f81 153f 4910 033f 360d 6e3f
00000130: 6a94 c5c0 de9e f9bf 2f65 98bf a901 d2c0
00000140: f018 cbbf 0ce2 b23f b856 c1bf fe9c 7f3f
00000150: 55c4 d8bd b3fe 393f 6fd7 1e3f b97c 6a3f
00000160: 6e43 033f e732 fb3e c2a3 a33f d25e bbc0
00000170: e6de e5bf 726c 94bf 2df2 bbc0 5d45 eabf
00000180: d6f2 c03f baae cebf 16b0 b53f 0771 253e
00000190: 53c8 aa3f ae00 aa3e 5d6b 8e3f 05e1 283f
000001a0: 78d6 523f cda9 8a3f c722 d4c0 b304 f7bf
000001b0: 4577 84bf 6bad a3c0 d105 9ebf 0898 383f
000001c0: 6ed6 bdbf c660 ca3f e13d e63e a20e 9d3f
000001d0: 86da 503e 0438 ad3f df1d 823f e966 7b3f
000001e0: 9535 aabf ac47 7c40 96fd 693f 88cc 8e3e
000001f0: 317c 3a40 f68f ee3e 3768 f9be a51b f53e
00000200: 7bca 91bf 3b77 b4bf fc80 96bf 0e96 adbf
00000210: 0c66 c5bf d6a4 b0bf 0d34 d1bf ca68 0abf
00000220: f89f 85c0 db90 f2bf e0fa 8ebf 60ab 01c0
00000230: 5d76 87bf c1a4 95be 4592 c9bf 5be7 fa3e
00000240: 2c4d 0f3f 09cc f9bb e4cd 8e3f b7ac e63e
00000250: 74db 313f 3336 d13e c0e4 b23f 7f9a 9c40
00000260: 93c8 f03f f102 b040 1779 5d40 4c20 a840
00000270: ea3b d83f cbaa fa3f ffe3 ba3f dd41 923f
00000280: f1d9 0540 1364 ac3f 744a 8b3f 035f e03f
00000290: df52 c13f 4d6c 673f d6d2 c3c0 0073 01c0
000002a0: b310 81bf f13f b1c0 9f6f 96bf 0fff 543f
000002b0: 16bb efbf 1a58 9c3f 7708 d4bc 4a51 8a3f
000002c0: e97e df3e da4a 883f 0e53 473f c183 183f
000002d0: a212 8d3f 195b bbc0 7588 fabf e97d 87bf
000002e0: e4a4 83c0 52ce b8bf cd0f 8b3f fd97 e7bf
000002f0: d6b0 9c3f 2b80 a03e dbfb 833f c72a 853e
00000300: 4bfc 4a3f 436d 7c3f 6581 933f b4a6 7f3f
00000310: 4746 d3c0 1ab1 e6bf 6b98 bebf 03b0 bec0
00000320: 4520 d7bf ae5b 313f 6c93 debf 563d 8d3f
00000330: a552 38bd 548d 513f ad4d f43e 9ebe 593f
00000340: ed9f 1c3f cd50 9d3e c37c 10bf 1701 4fc0
00000350: 2486 9dbf 7e11 c83d 87da ffbe 5ddf 28bf
00000360: 91fa 5c3e 97a7 4fbf ad91 53bf b941 733f
00000370: 4180 6fbe a829 8e3f 690e 813f 2b8a d23e
00000380: ec1d 1e3f

bias f4 [15]
-1.7489649 -1.9867814 1.0367017 -1.7702985 -1.9158707 -1.7371504 -1.8076109 -1.4907118
0.77655184 -1.3713741 5.1262116 -1.9645585 -1.7133983 -1.8717937 -0.7422085
00000000: 15de dfbf da4e febf a4b2 843f 2499 e2bf
00000010: 403b f5bf f25a debf cb5f e7bf a5cf bebf
00000020: 1acc 463f 3089 afbf ed09 a440 a776 fbbf
00000030: a350 dbbf f096 efbf 6001 3ebf

weight f4 [15, 15]
-1.4075435 -1.0718762 1.5670779 0.2195772 -1.0083127 -1.0477518 -1.0584587 -0.93975776
2.0738525 -0.071131214 1.7496823 -0.85064846 -0.9555975 -0.63230526 0.20132075 1.2748181
0.5463186 -2.7180026 -0.5728255 0.63137484 0.7649345 1.1897895 0.6905024 -3.3552516
-0.61600363 -1.9063865 0.7234542 0.46864566 0.63911974 -0.58687097 1.4830263 0.72373724
-2.6682901 -0.57886726 0.5335989 0.6858299 1.0506935 0.9953269 -3.4978366 -0.3563641
-1.5408391 0.77976954 0.71467525 0.46893567 -0.78449076 1.4796615 0.8621386 -2.2716312
-0.7025524 0.50340813 0.5779642 1.0180292 1.2449868 -2.999103 -0.36492345 -1.509867
0.7465799 0.521329 0.40417397 -0.8995108 1.3940482 1.1453216 -2.5543523 -1.0384637
0.44143227 0.75055814 0.73662436 1.0799748 -3.2832558 -0.6165892 -1.6845491 0.4461938
0.8349919 0.20304999 -0.64739984 1.5673271 1.0537633 -2.6719334 -0.5834991 1.0709207
0.9854589 1.0967818 0.9166069 -3.5024817 -0.5005574 -1.6444693 1.0059351 0.91378945
0.47539803 -0.57456535 1.591414 0.74181354 -2.440103 -0.54956627 1.1635119 0.8571616
1.0295053 0.6769937 -3.5603979 -0.40204337 -1.7603753 1.1869719 0.62488574 0.6483908
-0.69361126 1.8300319 1.3803321 -1.4847856 0.3205971 1.5080563 1.1870501 1.0636541
1.6516709 -2.124579 1.2463759 -1.0045714 1.1868739 1.0724572 1.9937098 0.5894167
1.9293088 1.1974888 -2.2993965 -0.5416965 0.760131 0.78166395 1.2888987 1.033376
-3.1994174 -0.64640814 -1.6229384 1.1127176 0.9955592 0.39484563 -0.8924408 1.3395231
0.64247733 -2.4854853 -0.81065613 0.884819 0.43426707 0.70184934 1.2042639 -3.4402814
-0.5373087 -1.5199629 0.7668695 0.48164758 0.33573925 -0.67452574 1.9209989 1.1099691
-2.548816 -0.5309342 0.7739959 0.6205984 1.5102043 1.1727668 -3.1050837 -0.4533761
-1.7882493 0.8943917 1.0624094 0.45481178 -0.5376091 1.5824502 1.1390527 -2.3197029
-0.521385 0.6515136 0.7980496 1.1926926 0.9622788 -3.321186 -0.63470376 -1.7098688
0.83337766 0.694946 0.6946083 -0.8229664 -1.2261677 -0.9146122 1.7788081 -0.009303822
-1.067952 -1.2716593 -1.1958107 -1.0707754 1.6185725 -0.027500317 1.5334438 -0.56747437
-0.7673956 -0.49816248 0.365853 1.3219018 0.7651986 -2.1669238 -0.88523537 0.8688819
0.48281518 0.9029308 0.95339596 -3.1750598 -0.5319499 -1.8028452 0.9347357 0.61834157
0.67168397 -0.61289716 1.7813196 11.343129 -0.054798763 10.113937 -3.975929 -1.4349711
4.326753 8.610168 -1.4072467 12.405218 0.61255425 6.5017734 11.7706785 1.1217288
16.23444
00000000: 632a b4bf 3d33 89bf 0296 c83f d8d8 603e
00000010: 6410 81bf bb1c 86bf 937b 87bf f793 70bf
00000020: 00ba 0440 3ead 91bd 97f5 df3f 19c4 59bf
00000030: 0aa2 74bf c2de 21bf 0727 4e3e 3d2d a33f
00000040: 89db 0b3f c1f3 2dc0 b1a4 12bf c8a1 213f
00000050: bfd2 433f 064b 983f c4c4 303f 71bc 56c0
00000060: 6ab2 1dbf 7904 f4bf 4b34 393f 53f2 ef3e
00000070: 5a9d 233f 2d3d 16bf ced3 bd3f d846 393f
00000080: 44c5 2ac0 a530 14bf f099 083f 8c92 2f3f
00000090: 207d 863f becd 7e3f 8edc 5fc0 5b75 b6be
000000a0: 373a c5bf fa9e 473f f5f4 363f 5618 f03e
000000b0: 63d4 48bf 8c65 bd3f 1eb5 5c3f 6862 11c0
000000c0: 79da 33bf 5bdf 003f 76f5 133f c84e 823f
000000d0: ba5b 9f3f 4ef1 3fc0 3fd7 babe 5243 c1bf
000000e0: dc1f 3f3f d175 053f e4ef ce3e 5746 66bf
000000f0: 2c70 b23f e699 923f 827a 23c0 61ec 84bf
00000100: 6903 e23e 9424 403f 6a93 3c3f 9d3c 8a3f
00000110: dd20 52c0 cad8 1dbf 4e9f d7bf 8473 e43e
00000120: 07c2 553f 56ec 4f3e ffbb 25bf 2d9e c83f
00000130: b7e1 863f f500 2bc0 3260 15bf ee13 893f
00000140: 0947 7c3f 5963 8c3f c0a6 6a3f a928 60c0
00000150: 8824 00bf f87d d2bf 7bc2 803f 1bee 693f
00000160: 5f67 f33e b716 13bf 74b3 cb3f 7ee7 3d3f
00000170: a62a 1cc0 60b0 0cbf f5ed 943f f16e 5b3f
00000180: d4c6 833f 764f 2d3f 8fdd 63c0 a1d8 cdbe
00000190: fa53 e1bf b2ee 973f 83f8 1f3f f1fc 253f
000001a0: 8290 31bf 7c3e ea3f b9ae b03f 740d bebf
000001b0: 4e25 a43e fd07 c13f 42f1 973f d125 883f
000001c0: f469 d33f 1af9 07c0 3f89 9f3f cc95 80bf
000001d0: 7ceb 973f 4746 893f e231 ff3f 03e4 163f
000001e0: 97f3 f63f 5047 993f 5029 13c0 9fac 0abf
000001f0: f297 423f 211b 483f a2fa a43f aa45 843f
00000200: 41c3 4cc0 017b 25bf 72bc cfbf 886d 8e3f
00000210: f8dc 7e3f 3529 ca3e 0077 64bf 7e75 ab3f
00000220: 6579 243f 3112 1fc0 2987 4fbf 7f83 623f
00000230: 4158 de3e 66ac 333f 5225 9a3f 922d 5cc0
00000240: 108d 09bf 258e c2bf 8f51 443f 839a f63e
00000250: 04e6 ab3e b8ad 2cbf 4be3 f53f 7813 8e3f
00000260: cd1f 23c0 4eeb 07bf 9824 463f 89df 1e3f
00000270: 604e c13f 391d 963f b1b9 46c0 ea20 e8be
00000280: 5ae5 e4bf dbf6 643f 08fd 873f 17dd e83e
00000290: c0a0 09bf ba8d ca3f 7bcc 913f 0376 14c0
000002a0: 7d79 05bf 98c9 263f fb4c 4c3f 27aa 983f
000002b0: e757 763f 508e 54c0 f27b 22bf fbdc dabf
000002c0: 3d58 553f fbe7 313f d9d1 313f edad 52bf
000002d0: 10f3 9cbf 0624 6abf fcaf e33f 0f6f 18bc
000002e0: a7b2 88bf bbc5 a2bf 5310 99bf 2b0f 89bf
000002f0: 622d cf3f 5848 e1bc e347 c43f 0046 11bf
00000300: 0a74 44bf 270f ffbe 1651 bb3e 1434 a93f
00000310: 0ee4 433f e1ae 0ac0 c99e 62bf 0b6f 5e3f
00000320: 8d33 f73e 7926 673f c211 743f 2e34 4bc0
00000330: de2d 08bf a2c3 e6bf d74a 6f3f a24b 1e3f
00000340: 7bf3 2b3f d4e6 1cbf 4802 e43f 757d 3541
00000350: ab74 60bd b0d2 2141 9f75 7ec0 22ad b7bf
00000360: c374 8a40 40c3 0941 a920 b4bf c67b 4641
00000370: 5bd0 1c3f 870e d040 b354 3c41 cf94 8f3f
00000380: 22e0 8141

bias f4 [15]
1.4012961 -1.7792372 -1.6851656 -1.9303321 -1.7561808 -1.8093965 -1.7916226 -0.7098751
-1.9387037 -1.7210567 -2.016336 -1.679979 1.2929099 -2.111355 0.40375358
00000000: ac5d b33f 0bbe e3bf 82b3 d7bf 1f15 f7bf
00000010: 88ca e0bf 4e9a e7bf e453 e5bf 60ba 35bf
00000020: 7127 f8bf 964b dcbf a60b 01c0 8d09 d7bf
00000030: 127e a53f 7120 07c0 cab8 ce3e

weight f4 [15, 15]
-3.0494728 0.695712 0.7712242 0.49062896 0.30974245 0.6739124 0.9776646 0.13776515
0.840252 0.5582504 1.162509 0.85904795 -3.2283359 0.5986422 -0.9711735 -3.3387017
0.71142155 0.730672 0.49255517 0.4449122 1.1039385 1.1247599 0.2956678 1.1801168
0.80476385 0.9339341 1.1077757 -2.979048 0.72559255 -1.0115898 -3.1581793 0.7754739
0.46804544 0.27486768 0.75620955 0.93783903 0.587338 0.23350291 0.62132007 0.6492231
0.9525218 0.9668411 -3.1694486 0.3351099 -0.9735926 -3.5656471 0.61365646 0.37279278
0.05904963 0.27860767 0.560963 0.6148458 0.08473326 0.84192735 0.21534325 0.9280891
0.4253548 -3.4345062 0.33009642 -1.0036799 -1.7828174 1.6050392 1.9719656 1.6522205
1.6085943 2.0486696 1.9112992 1.5184383 1.8575329 1.8529049 1.9319406 2.1874266
-1.4953411 1.7477208 0.8238397 -2.8950999 0.71636426 0.96802485 0.93431354 0.98661673
1.4501172 1.1394272 0.13484469 1.3583506 0.82257974 1.1659222 1.4062666 -2.5269818
0.6516067 -0.4354513 -1.419222 3.3968947 3.0394678 3.188476 2.9935932 3.6758735
3.1478984 3.7510793 3.309767 3.3179343 3.259138 3.338103 -1.7542368 3.0034316
3.7872975 -3.6038446 0.70645714 0.652972 0.42625275 0.58386004 0.92850125 0.8126003
-0.26292133 0.7083013 0.23433036 1.0425674 0.88899547 -3.1612349 0.5613169 -1.1102043
2.669725 -1.0051987 -1.2035825 -1.0021943 -0.834893 -1.3465525 -1.1561686 -0.3693291
-1.3929595 -0.7469466 -1.239003 -0.95296323 2.8985512 -0.92712533 2.007164 -3.7041616
0.49716064 0.3068624 0.2666006 0.49231753 0.708657 0.93378335 -0.08579215 0.4503598
0.30271822 0.7113226 0.58427095 -3.5539887 0.413352 -1.309476 -3.3132339 0.6576735
0.7908881 0.4219403 0.5368121 1.2023551 1.1701163 0.262985 1.0619999 0.6337799
1.0530545 0.79320437 -3.043921 0.73427576 -1.0693204 -2.626486 0.68876964 1.1696924
1.0197257 0.97315544 1.0931727 1.2082227 0.16017567 1.4016124 0.8407592 1.1799341
1.1980377 -2.7429976 1.0086064 -0.49075773 -3.6929824 0.43539798 0.6528944 0.18371426
0.65259504 0.51430917 0.48448482 -0.20003162 0.6720186 0.1823417 0.61105883 0.53171664
-3.6914718 0.33642364 -1.1655145 -3.253562 0.60442835 0.8681788 0.6757991 0.46278247
1.080017 0.9011712 0.3101343 0.9355077 0.8744357 0.8875227 1.1074982 -3.0183947
0.7895337 -1.0896713 -3.8496666 0.5091142 0.10236908 0.3915832 0.303356 0.43306178
0.3101448 -0.034693375 0.43714964 0.48270494 0.7893594 0.51635265 -3.371756 0.35136223
-1.345487
00000000: 902a 43c0 2e1a 323f f36e 453f b833 fb3e
00000010: 9096 9e3e 8685 2c3f 3a48 7a3f 4f12 0d3e
00000020: c11a 573f 80e9 0e3f 18cd 943f 91ea 5b3f
00000030: 0e9d 4ec0 9d40 193f d49e 78bf 4aad 55c0
00000040: b91f 363f 520d 3b3f 3130 fc3e 88cb e33e
00000050: db4d 8d3f 22f8 8f3f c561 973e 110e 973f
00000060: 0105 4e3f 4e16 6f3f 98cb 8d3f b9a8 3ec0
00000070: 6fc0 393f c67b 81bf 9c1f 4ac0 7585 463f
00000080: a7a3 ef3e 75bb 8c3e f396 413f 3816 703f
00000090: c85b 163f 631b 6f3e d50e 1f3f 7c33 263f
000000a0: 78d8 733f e682 773f 3fd8 4ac0 8693 ab3e
000000b0: 5d3d 79bf 9033 64c0 9718 1d3f b2de be3e
000000c0: 06de 713d aaa5 8e3e 459b 0f3f 8966 1d3f
000000d0: a288 ad3d 8d88 573f f182 5c3e 3f97 6d3f
000000e0: 1bc8 d93e f3ce 5bc0 6602 a93e 9578 80bf
000000f0: 5c33 e4bf ed71 cd3f 5e69 fc3f f67b d33f
00000100: 6be6 cd3f 671d 0340 74a5 f43f 305c c23f
00000110: a3c3 ed3f fd2b ed3f d449 f73f ccfe 0b40
00000120: 5667 bfbf 51b5 df3f 29e7 523f 5149 39c0
00000130: a663 373f 7ad0 773f 2c2f 6f3f ea92 7c3f
00000140: 719d b93f c0d8 913f ba14 0a3e 6fde ad3f
00000150: 9694 523f f03c 953f 8b00 b43f 12ba 21c0
00000160: b2cf 263f 79f3 debe 11a9 b5bf b966 5940
00000170: a486 4240 fe0f 4c40 0897 3f40 8341 6b40
00000180: 2b77 4940 af11 7040 39d3 5340 0959 5440
00000190: b895 5040 7ba3 5540 d58a e0bf 3938 4040
000001a0: 1563 7240 64a5 66c0 60da 343f 2c29 273f
000001b0: cd3d da3e da77 153f 42b2 6d3f 9306 503f
000001c0: a09d 86be 3c53 353f 4cf4 6f3e d972 853f
000001d0: 3595 633f ac51 4ac0 77b2 0f3f 2d1b 8ebf
000001e0: c6dc 2a40 5aaa 80bf fe0e 9abf e747 80bf
000001f0: 8cbb 55bf d55b acbf 55fd 93bf b418 bdbe
00000200: 7f4c b2bf e437 3fbf a697 9ebf 66f5 73bf
00000210: dd81 3940 1658 6dbf 6075 0040 fc10 6dc0
00000220: d78b fe3e 121d 9d3e e07f 883e 0b11 fc3e
00000230: 8c6a 353f 6d0c 6f3f cbb3 afbd 8f95 e63e
00000240: e2fd 9a3e 3d19 363f c892 153f 8d74 63c0
00000250: e0a2 d33e e99c a7bf 060c 54c0 4a5d 283f
00000260: a477 4a3f 8f08 d83e 856c 093f c6e6 993f
00000270: 5fc6 953f f8a5 863e 9def 873f 663f 223f
00000280: 7dca 863f 710f 4b3f 9acf 42c0 7ff9 3b3f
00000290: 7edf 88bf 5918 28c0 3553 303f 7bb8 953f
000002a0: 5f86 823f b720 793f 15ed 8b3f 0ba7 9a3f
000002b0: 1705 243e 0968 b33f ff3b 573f 1508 973f
000002c0: 4d59 993f 468d 2fc0 041a 813f 9944 fbbe
000002d0: d359 6cc0 7cec de3e 1624 273f 971f 3c3e
000002e0: 7810 273f c4a9 033f 650e f83e 17d5 4cbe
000002f0: 6909 2c3f c8b7 3a3e 5a6e 1c3f 951e 083f
00000300: 1341 6cc0 b83f ac3e 942f 95bf 5c3a 50c0
00000310: d1bb 1a3f f740 5e3f 2b01 2d3f d3f1 ec3e
00000320: ff3d 8a3f 28b3 663f ecc9 9e3e 6f7d 6f3f
00000330: 05db 5f3f b034 633f 80c2 8d3f 612d 41c0
00000340: e11e 4a3f 597a 8bbf f060 76c0 4f55 023f
00000350: e1a6 d13d 987d c83e 7a51 9b3e 46ba dd3e
00000360: 4dcb 9e3e a41a 0ebd 14d2 df3e 1a25 f73e
00000370: 7513 4a3f b02f 043f daca 57c0 c0e5 b33e
00000380: eb38 acbf

bias f4 [15]
-2.755949 -2.6102192 -2.5966668 -2.8298633 -1.3732672 -2.6175165 -0.9255767 -2.517582
1.8956637 -2.4413822 -2.6303527 -2.6086073 -2.9833038 -2.6757863 -3.0639567
00000000: 7861 30c0 d50d 27c0 ca2f 26c0 7b1c 35c0
00000010: 38c7 afbf 6485 27c0 98f2 6cbf 1020 21c0
00000020: 1ca5 f23f 9b3f 1cc0 b357 28c0 6cf3 26c0
00000030: 73ee 3ec0 1540 2bc0 de17 44c0

weight f4 [10, 15]
1.9721653 2.6912956 1.5723504 1.4272985 1.1896966 1.1280348 0.6650129 1.8096819
-3.8334315 1.4895719 2.5223255 1.3946744 0.91451293 2.1967616 1.1903855 0.4679939
1.059939 0.46117347 0.36548105 0.881602 0.63720554 0.58603895 0.4933674 -3.6301773
0.4984058 0.9570354 0.45116994 0.11981658 1.0155635 0.19915338 0.045620482 0.83788055
-0.037143823 -0.022472076 2.662795 0.8517042 1.8626986 -0.08195231 -1.7862085 -0.09593129
0.4554071 0.8928019 -0.3679502 0.37580746 -0.06972126 0.67633706 1.5505506 0.7043179
0.032543752 3.181302 1.3043649 1.5552416 0.67984295 -2.65563 0.15436815 1.2726932
1.539197 0.18410502 1.3747966 0.056624312 0.7314626 1.40045 0.6515393 0.33739606
2.9887881 1.4510505 3.9606166 0.52884716 -0.70317024 0.10337092 1.1167624 1.3956943
0.2643162 1.5058968 0.09897154 1.3418344 1.9612883 1.2488854 0.941029 2.5900774
1.4321995 2.900846 1.1092244 -1.3413266 0.8670606 1.658985 1.7106694 0.37547976
1.485854 0.50096834 0.8145081 1.2214056 0.8838885 0.4568643 3.2180262 1.4308307
1.4800817 0.7092364 -2.4101732 0.5040297 1.5369161 1.5238627 0.2960177 1.1276244
0.5542229 1.005326 1.1849201 0.8022495 0.47864452 3.057966 1.6804501 1.5549488
0.5481501 -2.1325336 0.64360315 1.3850539 1.3151351 0.0147609655 1.4251375 0.031301185
2.873092 2.6069674 1.9579234 2.5305614 0.30186254 1.2772607 0.42557612 2.853479
-3.8668444 2.460511 2.5764358 1.3001467 2.7341497 2.7596817 2.164392 1.2921292
1.5493159 0.7992841 0.45251098 2.5070784 1.0908605 2.4515142 0.94789463 -1.3877369
0.6998341 1.3060285 1.3784406 0.36299467 1.2787899 0.5249822
00000000: ea6f fc3f 303e 2c40 c742 c93f b8b1 b63f
00000010: fa47 983f 7263 903f 493e 2a3f a8a3 e73f
00000020: f156 75c0 4baa be3f c86d 2140 b184 b23f
00000030: 851d 6a3f be97 0c40 8d5e 983f e59c ef3e
00000040: 15ac 873f ee1e ec3e 5520 bb3e abb0 613f
00000050: e71f 233f a606 163f a79a fc3e d354 68c0
00000060: 0c2f ff3e 4600 753f bfff e63e 6562 f53d
00000070: fcfd 813f ddee 4b3e 8bdc 3a3d 577f 563f
00000080: 1f24 18bd 5c17 b8bc 3c6b 2a40 4909 5a3f
00000090: e86c ee3f 9dd6 a7bd 7ba2 e4bf a077 c4bd
000000a0: 1f2b e93e aa8e 643f f863 bcbe d669 c03e
000000b0: 05ca 8ebd 6d24 2d3f 7178 c63f 2e4e 343f
000000c0: 994c 053d 749a 4b40 6ef5 a63f 2812 c73f
000000d0: 300a 2e3f d8f5 29c0 af12 1e3e 9ce7 a23f
000000e0: 6804 c53f 0786 3c3e 56f9 af3f e5ee 673d
000000f0: 2241 3b3f f241 b33f 48cb 263f 2dbf ac3e
00000100: 4e48 3f40 06bc b93f be7a 7d40 8762 073f
00000110: f702 34bf 22b4 d33d 12f2 8e3f 1ca6 b23f
00000120: 7454 873e 3ac1 c03f 97b1 ca3d 3bc1 ab3f
00000130: 7f0b fb3f 7adb 9f3f 47e7 703f d4c3 2540
00000140: 5052 b73f 76a7 3940 11fb 8d3f 97b0 abbf
00000150: aff7 5d3f 9f59 d43f 37f7 da3f e23e c03e
00000160: 7730 be3f 763f 003f 9a83 503f 0557 9c3f
00000170: 8446 623f 1eea e93e 24f4 4d40 7625 b73f
00000180: 5173 bd3f 8490 353f 4740 1ac0 1708 013f
00000190: abb9 c43f ef0d c33f a28f 973e ff55 903f
000001a0: 8de1 0d3f 86ae 803f 76ab 973f 3960 4d3f
000001b0: e510 f53e b7b5 4340 fd18 d73f 9008 c73f
000001c0: 9153 0c3f 6e7b 08c0 2dc3 243f 7249 b13f
000001d0: 5956 a83f fad7 713c e86a b63f ac35 003d
000001e0: bde0 3740 8ed8 2640 3c9d fa3f b8f4 2140
000001f0: ba8d 9a3e 477d a33f 1de5 d93e 669f 3640
00000200: 617a 77c0 0379 1d40 53e4 2440 356b a63f
00000210: 4ffc 2e40 a09e 3040 6685 0a40 7d64 a53f
00000220: fc4f c63f e29d 4c3f 85af e73e f973 2040
00000230: 51a1 8b3f 9ce5 1c40 39a9 723f 5da1 b1bf
00000240: 5428 333f f12b a73f be70 b03f 70da b93e
00000250: 63af a33f 3c65 063f

bias f4 [10]
-4.0475607 -3.4379225 -2.4171617 -2.4184525 -1.3091427 -1.5001427 -2.7612333 -3.0172496
-4.1049147 -2.0420396
00000000: 9e85 81c0 ec06 5cc0 c7b2 1ac0 edc7 1ac0
00000010: fd91 a7bf ad04 c0bf 0cb8 30c0 9e1a 41c0
00000020: 765b 83c0 c7b0 02c0

weight f4 [10, 10]
4.176267 1.4675667 3.0693376 3.1584933 1.0398299 1.0749228 2.9468222 3.2611413
3.4440336 1.3031056 1.8548952 0.41793132 1.8285327 0.9486925 2.0453074 1.6926507
1.1717113 0.8290242 0.56178504 2.2179518 1.5253025 0.5426959 1.7686402 1.4050426
1.9534141 1.8852546 0.9838405 1.0235546 0.9931272 1.9251144 0.8170194 0.32100236
1.2398762 1.0403097 2.4309142 2.542921 1.1610091 1.0432633 0.3835608 1.9718125
-1.3013284 -0.16024245 -1.5743743 -0.81437343 -2.1274474 -2.0512326 -0.6812646 -1.1939601
-0.58320034 -2.5539126 1.0950524 0.42760342 1.3364317 1.2022853 1.973985 2.1529567
0.81696224 1.2797867 0.5189795 2.3441818 -0.45385352 -0.44664675 -1.1064755 -1.1853149
-2.5708892 -2.2795267 -1.1990999 -1.364949 -0.6808785 -2.3708107 1.2399437 1.0649052
1.7799163 1.878677 3.9592605 3.2935777 1.6567614 2.2102163 1.2200774 2.8040614
1.7940578 0.5421244 1.9045105 1.299615 2.4203722 1.7241623 0.66129005 0.8364054
0.5681382 1.9637865 1.0123907 0.44481948 1.5852557 1.0331115 2.2572687 2.209938
1.1941075 0.9140452 0.47784886 1.9775566
00000000: fba3 8540 3ad9 bb3f 0770 4440 c124 4a40
00000010: 2519 853f 1297 893f bc98 3c40 8ab6 5040
00000020: 0c6b 5c40 2acc a63f 356d ed3f 18fb d53e
00000030: 5c0d ea3f 83dd 723f 51e6 0240 c7a8 d83f
00000040: a3fa 953f ee3a 543f 25d1 0f3f ecf2 0d40
00000050: 1d3d c33f 1eee 0a3f cd62 e23f 70d8 b33f
00000060: 7909 fa3f 0650 f13f f9dc 7b3f d603 833f
00000070: 963d 7e3f 266a f63f 2f28 513f 6c5a a43e
00000080: 43b4 9e3f de28 853f 1994 1b40 38bf 2240
00000090: f29b 943f a789 853f 1562 c43e 5a64 fc3f
000000a0: ee91 a6bf 9916 24be 1985 c9bf c77a 50bf
000000b0: 1928 08c0 6547 03c0 5b67 2ebf afd3 98bf
000000c0: 9e4c 15bf 4e73 23c0 ad2a 8c3f d6ee da3e
000000d0: 3210 ab3f 7ce4 993f 8aab fc3f 0bca 0940
000000e0: 7024 513f 0dd0 a33f d7db 043f 1307 1640
000000f0: 7d5f e8be e2ae e4be fda0 8dbf 66b8 97bf
00000100: 7389 24c0 c4e3 11c0 1b7c 99bf a6b6 aebf
00000110: 0e4e 2ebf 5dbb 17c0 7ab6 9e3f d04e 883f
00000120: 4cd4 e33f 7d78 f03f 8664 7d40 fac9 5240
00000130: c210 d43f 2f74 0d40 7f2b 9c3f be75 3340
00000140: b0a3 e53f aac8 0a3f 00c7 f33f c959 a63f
00000150: 61e7 1a40 5ab1 dc3f 4e4a 293f aa1e 563f
00000160: 8171 113f 5b5d fb3f 0596 813f 61bf e33e
00000170: a9e9 ca3f ff3c 843f 1777 1040 a06f 0d40
00000180: 84d8 983f defe 693f 9ba8 f43e 9320 fd3f

bias f4 [10]
-4.95913 -3.9225616 -3.9550438 -3.71443 3.8072479 -4.0122385 3.6633847 -2.9865453
-3.9194405 -3.838693
00000000: 31b1 9ec0 400b 7bc0 701f 7dc0 39b9 6dc0
00000010: f3a9 7340 4264 80c0 e574 6a40 8f23 3fc0
00000020: 1dd8 7ac0 25ad 75c0

weight f4 [1, 10]
27.155405 23.818745 24.18379 22.315578 -10.221394 23.460024 -10.670718 21.83854
23.51687 22.861187
00000000: 453e d941 ca8c be41 6778 c141 4e86 b241
00000010: d48a 23c1 21ae bb41 43bb 2ac1 54b5 ae41
00000020: 8d22 bc41 b6e3 b641
